node {
  name: "global_step/Initializer/zeros"
  op: "Const"
  attr {
    key: "_class"
    value {
      list {
        s: "loc:@global_step"
      }
    }
  }
  attr {
    key: "_output_shapes"
    value {
      list {
        shape {
        }
      }
    }
  }
  attr {
    key: "dtype"
    value {
      type: DT_INT64
    }
  }
  attr {
    key: "value"
    value {
      tensor {
        dtype: DT_INT64
        tensor_shape {
        }
        int64_val: 0
      }
    }
  }
}
node {
  name: "global_step"
  op: "VarHandleOp"
  attr {
    key: "_class"
    value {
      list {
        s: "loc:@global_step"
      }
    }
  }
  attr {
    key: "_output_shapes"
    value {
      list {
        shape {
        }
      }
    }
  }
  attr {
    key: "allowed_devices"
    value {
      list {
      }
    }
  }
  attr {
    key: "container"
    value {
      s: ""
    }
  }
  attr {
    key: "dtype"
    value {
      type: DT_INT64
    }
  }
  attr {
    key: "shape"
    value {
      shape {
      }
    }
  }
  attr {
    key: "shared_name"
    value {
      s: "global_step"
    }
  }
}
node {
  name: "global_step/IsInitialized/VarIsInitializedOp"
  op: "VarIsInitializedOp"
  input: "global_step"
  attr {
    key: "_output_shapes"
    value {
      list {
        shape {
        }
      }
    }
  }
}
node {
  name: "global_step/Assign"
  op: "AssignVariableOp"
  input: "global_step"
  input: "global_step/Initializer/zeros"
  attr {
    key: "dtype"
    value {
      type: DT_INT64
    }
  }
}
node {
  name: "global_step/Read/ReadVariableOp"
  op: "ReadVariableOp"
  input: "global_step"
  attr {
    key: "_output_shapes"
    value {
      list {
        shape {
        }
      }
    }
  }
  attr {
    key: "dtype"
    value {
      type: DT_INT64
    }
  }
}
node {
  name: "global_step/VarIsInitializedOp"
  op: "VarIsInitializedOp"
  input: "global_step"
  attr {
    key: "_output_shapes"
    value {
      list {
        shape {
        }
      }
    }
  }
}
node {
  name: "global_step/cond"
  op: "If"
  input: "global_step/VarIsInitializedOp"
  input: "global_step"
  input: "global_step/Initializer/zeros"
  attr {
    key: "Tcond"
    value {
      type: DT_BOOL
    }
  }
  attr {
    key: "Tin"
    value {
      list {
        type: DT_RESOURCE
        type: DT_INT64
      }
    }
  }
  attr {
    key: "Tout"
    value {
      list {
        type: DT_INT64
      }
    }
  }
  attr {
    key: "_lower_using_switch_merge"
    value {
      b: true
    }
  }
  attr {
    key: "_output_shapes"
    value {
      list {
        shape {
        }
      }
    }
  }
  attr {
    key: "_read_only_resource_inputs"
    value {
      list {
        i: 1
      }
    }
  }
  attr {
    key: "else_branch"
    value {
      func {
        name: "global_step_cond_false_7"
      }
    }
  }
  attr {
    key: "output_shapes"
    value {
      list {
        shape {
        }
      }
    }
  }
  attr {
    key: "then_branch"
    value {
      func {
        name: "global_step_cond_true_6"
      }
    }
  }
}
node {
  name: "global_step/cond/Identity"
  op: "Identity"
  input: "global_step/cond"
  attr {
    key: "T"
    value {
      type: DT_INT64
    }
  }
  attr {
    key: "_output_shapes"
    value {
      list {
        shape {
        }
      }
    }
  }
}
node {
  name: "global_step/add/y"
  op: "Const"
  attr {
    key: "_output_shapes"
    value {
      list {
        shape {
        }
      }
    }
  }
  attr {
    key: "dtype"
    value {
      type: DT_INT64
    }
  }
  attr {
    key: "value"
    value {
      tensor {
        dtype: DT_INT64
        tensor_shape {
        }
        int64_val: 0
      }
    }
  }
}
node {
  name: "global_step/add"
  op: "AddV2"
  input: "global_step/cond/Identity"
  input: "global_step/add/y"
  attr {
    key: "T"
    value {
      type: DT_INT64
    }
  }
  attr {
    key: "_output_shapes"
    value {
      list {
        shape {
        }
      }
    }
  }
}
node {
  name: "Const"
  op: "Const"
  device: "/device:CPU:0"
  attr {
    key: "_output_shapes"
    value {
      list {
        shape {
          dim {
            size: 1
          }
        }
      }
    }
  }
  attr {
    key: "dtype"
    value {
      type: DT_STRING
    }
  }
  attr {
    key: "value"
    value {
      tensor {
        dtype: DT_STRING
        tensor_shape {
          dim {
            size: 1
          }
        }
        string_val: "E:\\My Documents\\localRepos\\address-net\\addressnet\\netherlands\\tf.dataset.train"
      }
    }
  }
}
node {
  name: "flat_filenames/shape"
  op: "Const"
  device: "/device:CPU:0"
  attr {
    key: "_output_shapes"
    value {
      list {
        shape {
          dim {
            size: 1
          }
        }
      }
    }
  }
  attr {
    key: "dtype"
    value {
      type: DT_INT32
    }
  }
  attr {
    key: "value"
    value {
      tensor {
        dtype: DT_INT32
        tensor_shape {
          dim {
            size: 1
          }
        }
        int_val: -1
      }
    }
  }
}
node {
  name: "flat_filenames"
  op: "Reshape"
  input: "Const"
  input: "flat_filenames/shape"
  device: "/device:CPU:0"
  attr {
    key: "T"
    value {
      type: DT_STRING
    }
  }
  attr {
    key: "Tshape"
    value {
      type: DT_INT32
    }
  }
  attr {
    key: "_output_shapes"
    value {
      list {
        shape {
          dim {
            size: 1
          }
        }
      }
    }
  }
}
node {
  name: "TensorSliceDataset"
  op: "TensorSliceDataset"
  input: "flat_filenames"
  device: "/device:CPU:0"
  attr {
    key: "Toutput_types"
    value {
      list {
        type: DT_STRING
      }
    }
  }
  attr {
    key: "_output_shapes"
    value {
      list {
        shape {
        }
      }
    }
  }
  attr {
    key: "output_shapes"
    value {
      list {
        shape {
        }
      }
    }
  }
}
node {
  name: "FlatMapDataset"
  op: "FlatMapDataset"
  input: "TensorSliceDataset"
  device: "/device:CPU:0"
  attr {
    key: "Targuments"
    value {
      list {
      }
    }
  }
  attr {
    key: "_output_shapes"
    value {
      list {
        shape {
        }
      }
    }
  }
  attr {
    key: "f"
    value {
      func {
        name: "__inference_Dataset_flat_map_read_one_file_30"
        attr {
          key: "_tf_data_function"
          value {
            b: true
          }
        }
      }
    }
  }
  attr {
    key: "output_shapes"
    value {
      list {
        shape {
        }
      }
    }
  }
  attr {
    key: "output_types"
    value {
      list {
        type: DT_STRING
      }
    }
  }
}
node {
  name: "buffer_size"
  op: "Const"
  device: "/device:CPU:0"
  attr {
    key: "_output_shapes"
    value {
      list {
        shape {
        }
      }
    }
  }
  attr {
    key: "dtype"
    value {
      type: DT_INT64
    }
  }
  attr {
    key: "value"
    value {
      tensor {
        dtype: DT_INT64
        tensor_shape {
        }
        int64_val: 2000
      }
    }
  }
}
node {
  name: "seed"
  op: "Const"
  device: "/device:CPU:0"
  attr {
    key: "_output_shapes"
    value {
      list {
        shape {
        }
      }
    }
  }
  attr {
    key: "dtype"
    value {
      type: DT_INT64
    }
  }
  attr {
    key: "value"
    value {
      tensor {
        dtype: DT_INT64
        tensor_shape {
        }
        int64_val: 0
      }
    }
  }
}
node {
  name: "seed2"
  op: "Const"
  device: "/device:CPU:0"
  attr {
    key: "_output_shapes"
    value {
      list {
        shape {
        }
      }
    }
  }
  attr {
    key: "dtype"
    value {
      type: DT_INT64
    }
  }
  attr {
    key: "value"
    value {
      tensor {
        dtype: DT_INT64
        tensor_shape {
        }
        int64_val: 0
      }
    }
  }
}
node {
  name: "ShuffleDataset"
  op: "ShuffleDataset"
  input: "FlatMapDataset"
  input: "buffer_size"
  input: "seed"
  input: "seed2"
  device: "/device:CPU:0"
  attr {
    key: "_output_shapes"
    value {
      list {
        shape {
        }
      }
    }
  }
  attr {
    key: "output_shapes"
    value {
      list {
        shape {
        }
      }
    }
  }
  attr {
    key: "output_types"
    value {
      list {
        type: DT_STRING
      }
    }
  }
  attr {
    key: "reshuffle_each_iteration"
    value {
      b: true
    }
  }
}
node {
  name: "num_parallel_calls"
  op: "Const"
  device: "/device:CPU:0"
  attr {
    key: "_output_shapes"
    value {
      list {
        shape {
        }
      }
    }
  }
  attr {
    key: "dtype"
    value {
      type: DT_INT64
    }
  }
  attr {
    key: "value"
    value {
      tensor {
        dtype: DT_INT64
        tensor_shape {
        }
        int64_val: 8
      }
    }
  }
}
node {
  name: "ParallelMapDatasetV2"
  op: "ParallelMapDatasetV2"
  input: "ShuffleDataset"
  input: "num_parallel_calls"
  device: "/device:CPU:0"
  attr {
    key: "Targuments"
    value {
      list {
      }
    }
  }
  attr {
    key: "_output_shapes"
    value {
      list {
        shape {
        }
      }
    }
  }
  attr {
    key: "deterministic"
    value {
      s: "default"
    }
  }
  attr {
    key: "f"
    value {
      func {
        name: "__inference_Dataset_map_lambda_63"
        attr {
          key: "_tf_data_function"
          value {
            b: true
          }
        }
      }
    }
  }
  attr {
    key: "output_shapes"
    value {
      list {
        shape {
        }
        shape {
        }
        shape {
        }
        shape {
        }
        shape {
        }
        shape {
        }
        shape {
        }
      }
    }
  }
  attr {
    key: "output_types"
    value {
      list {
        type: DT_STRING
        type: DT_STRING
        type: DT_INT64
        type: DT_STRING
        type: DT_STRING
        type: DT_STRING
        type: DT_STRING
      }
    }
  }
  attr {
    key: "preserve_cardinality"
    value {
      b: true
    }
  }
  attr {
    key: "use_inter_op_parallelism"
    value {
      b: true
    }
  }
}
node {
  name: "num_parallel_calls_1"
  op: "Const"
  device: "/device:CPU:0"
  attr {
    key: "_output_shapes"
    value {
      list {
        shape {
        }
      }
    }
  }
  attr {
    key: "dtype"
    value {
      type: DT_INT64
    }
  }
  attr {
    key: "value"
    value {
      tensor {
        dtype: DT_INT64
        tensor_shape {
        }
        int64_val: 8
      }
    }
  }
}
node {
  name: "ParallelMapDatasetV2_1"
  op: "ParallelMapDatasetV2"
  input: "ParallelMapDatasetV2"
  input: "num_parallel_calls_1"
  device: "/device:CPU:0"
  attr {
    key: "Targuments"
    value {
      list {
      }
    }
  }
  attr {
    key: "_output_shapes"
    value {
      list {
        shape {
        }
      }
    }
  }
  attr {
    key: "deterministic"
    value {
      s: "default"
    }
  }
  attr {
    key: "f"
    value {
      func {
        name: "__inference_Dataset_map_lambda_80"
        attr {
          key: "_tf_data_function"
          value {
            b: true
          }
        }
      }
    }
  }
  attr {
    key: "output_shapes"
    value {
      list {
        shape {
          unknown_rank: true
        }
        shape {
          unknown_rank: true
        }
        shape {
          unknown_rank: true
        }
      }
    }
  }
  attr {
    key: "output_types"
    value {
      list {
        type: DT_INT32
        type: DT_INT64
        type: DT_BOOL
      }
    }
  }
  attr {
    key: "preserve_cardinality"
    value {
      b: true
    }
  }
  attr {
    key: "use_inter_op_parallelism"
    value {
      b: true
    }
  }
}
node {
  name: "batch_size"
  op: "Const"
  device: "/device:CPU:0"
  attr {
    key: "_output_shapes"
    value {
      list {
        shape {
        }
      }
    }
  }
  attr {
    key: "dtype"
    value {
      type: DT_INT64
    }
  }
  attr {
    key: "value"
    value {
      tensor {
        dtype: DT_INT64
        tensor_shape {
        }
        int64_val: 50
      }
    }
  }
}
node {
  name: "Const_1"
  op: "Const"
  device: "/device:CPU:0"
  attr {
    key: "_output_shapes"
    value {
      list {
        shape {
          dim {
          }
        }
      }
    }
  }
  attr {
    key: "dtype"
    value {
      type: DT_INT64
    }
  }
  attr {
    key: "value"
    value {
      tensor {
        dtype: DT_INT64
        tensor_shape {
          dim {
          }
        }
      }
    }
  }
}
node {
  name: "Const_2"
  op: "Const"
  device: "/device:CPU:0"
  attr {
    key: "_output_shapes"
    value {
      list {
        shape {
          dim {
            size: 1
          }
        }
      }
    }
  }
  attr {
    key: "dtype"
    value {
      type: DT_INT64
    }
  }
  attr {
    key: "value"
    value {
      tensor {
        dtype: DT_INT64
        tensor_shape {
          dim {
            size: 1
          }
        }
        int64_val: -1
      }
    }
  }
}
node {
  name: "Const_3"
  op: "Const"
  device: "/device:CPU:0"
  attr {
    key: "_output_shapes"
    value {
      list {
        shape {
          dim {
            size: 2
          }
        }
      }
    }
  }
  attr {
    key: "dtype"
    value {
      type: DT_INT64
    }
  }
  attr {
    key: "value"
    value {
      tensor {
        dtype: DT_INT64
        tensor_shape {
          dim {
            size: 2
          }
        }
        tensor_content: "\377\377\377\377\377\377\377\377\007\000\000\000\000\000\000\000"
      }
    }
  }
}
node {
  name: "padding_value"
  op: "Const"
  device: "/device:CPU:0"
  attr {
    key: "_output_shapes"
    value {
      list {
        shape {
        }
      }
    }
  }
  attr {
    key: "dtype"
    value {
      type: DT_INT32
    }
  }
  attr {
    key: "value"
    value {
      tensor {
        dtype: DT_INT32
        tensor_shape {
        }
        int_val: 0
      }
    }
  }
}
node {
  name: "padding_value_1"
  op: "Const"
  device: "/device:CPU:0"
  attr {
    key: "_output_shapes"
    value {
      list {
        shape {
        }
      }
    }
  }
  attr {
    key: "dtype"
    value {
      type: DT_INT64
    }
  }
  attr {
    key: "value"
    value {
      tensor {
        dtype: DT_INT64
        tensor_shape {
        }
        int64_val: 0
      }
    }
  }
}
node {
  name: "padding_value_2"
  op: "Const"
  device: "/device:CPU:0"
  attr {
    key: "_output_shapes"
    value {
      list {
        shape {
        }
      }
    }
  }
  attr {
    key: "dtype"
    value {
      type: DT_BOOL
    }
  }
  attr {
    key: "value"
    value {
      tensor {
        dtype: DT_BOOL
        tensor_shape {
        }
        bool_val: false
      }
    }
  }
}
node {
  name: "drop_remainder"
  op: "Const"
  device: "/device:CPU:0"
  attr {
    key: "_output_shapes"
    value {
      list {
        shape {
        }
      }
    }
  }
  attr {
    key: "dtype"
    value {
      type: DT_BOOL
    }
  }
  attr {
    key: "value"
    value {
      tensor {
        dtype: DT_BOOL
        tensor_shape {
        }
        bool_val: false
      }
    }
  }
}
node {
  name: "PaddedBatchDatasetV2"
  op: "PaddedBatchDatasetV2"
  input: "ParallelMapDatasetV2_1"
  input: "batch_size"
  input: "Const_1"
  input: "Const_2"
  input: "Const_3"
  input: "padding_value"
  input: "padding_value_1"
  input: "padding_value_2"
  input: "drop_remainder"
  device: "/device:CPU:0"
  attr {
    key: "N"
    value {
      i: 3
    }
  }
  attr {
    key: "Toutput_types"
    value {
      list {
        type: DT_INT32
        type: DT_INT64
        type: DT_BOOL
      }
    }
  }
  attr {
    key: "_output_shapes"
    value {
      list {
        shape {
        }
      }
    }
  }
  attr {
    key: "output_shapes"
    value {
      list {
        shape {
          dim {
            size: -1
          }
        }
        shape {
          dim {
            size: -1
          }
          dim {
            size: -1
          }
        }
        shape {
          dim {
            size: -1
          }
          dim {
            size: -1
          }
          dim {
            size: 7
          }
        }
      }
    }
  }
  attr {
    key: "parallel_copy"
    value {
      b: false
    }
  }
}
node {
  name: "num_parallel_calls_2"
  op: "Const"
  device: "/device:CPU:0"
  attr {
    key: "_output_shapes"
    value {
      list {
        shape {
        }
      }
    }
  }
  attr {
    key: "dtype"
    value {
      type: DT_INT64
    }
  }
  attr {
    key: "value"
    value {
      tensor {
        dtype: DT_INT64
        tensor_shape {
        }
        int64_val: 8
      }
    }
  }
}
node {
  name: "ParallelMapDatasetV2_2"
  op: "ParallelMapDatasetV2"
  input: "PaddedBatchDatasetV2"
  input: "num_parallel_calls_2"
  device: "/device:CPU:0"
  attr {
    key: "Targuments"
    value {
      list {
      }
    }
  }
  attr {
    key: "_output_shapes"
    value {
      list {
        shape {
        }
      }
    }
  }
  attr {
    key: "deterministic"
    value {
      s: "default"
    }
  }
  attr {
    key: "f"
    value {
      func {
        name: "__inference_Dataset_map_lambda_99"
        attr {
          key: "_tf_data_function"
          value {
            b: true
          }
        }
      }
    }
  }
  attr {
    key: "output_shapes"
    value {
      list {
        shape {
          dim {
            size: -1
          }
          dim {
            size: -1
          }
        }
        shape {
          dim {
            size: -1
          }
        }
        shape {
          dim {
            size: -1
          }
          dim {
            size: -1
          }
          dim {
            size: 7
          }
        }
      }
    }
  }
  attr {
    key: "output_types"
    value {
      list {
        type: DT_INT64
        type: DT_INT32
        type: DT_BOOL
      }
    }
  }
  attr {
    key: "preserve_cardinality"
    value {
      b: true
    }
  }
  attr {
    key: "use_inter_op_parallelism"
    value {
      b: true
    }
  }
}
node {
  name: "buffer_size_1"
  op: "Const"
  device: "/device:CPU:0"
  attr {
    key: "_output_shapes"
    value {
      list {
        shape {
        }
      }
    }
  }
  attr {
    key: "dtype"
    value {
      type: DT_INT64
    }
  }
  attr {
    key: "value"
    value {
      tensor {
        dtype: DT_INT64
        tensor_shape {
        }
        int64_val: 20000
      }
    }
  }
}
node {
  name: "PrefetchDataset"
  op: "PrefetchDataset"
  input: "ParallelMapDatasetV2_2"
  input: "buffer_size_1"
  device: "/device:CPU:0"
  attr {
    key: "_class"
    value {
      list {
        s: "loc:@ParallelMapDatasetV2_2"
      }
    }
  }
  attr {
    key: "_output_shapes"
    value {
      list {
        shape {
        }
      }
    }
  }
  attr {
    key: "buffer_size_min"
    value {
      i: 0
    }
  }
  attr {
    key: "legacy_autotune"
    value {
      b: true
    }
  }
  attr {
    key: "output_shapes"
    value {
      list {
        shape {
          dim {
            size: -1
          }
          dim {
            size: -1
          }
        }
        shape {
          dim {
            size: -1
          }
        }
        shape {
          dim {
            size: -1
          }
          dim {
            size: -1
          }
          dim {
            size: 7
          }
        }
      }
    }
  }
  attr {
    key: "output_types"
    value {
      list {
        type: DT_INT64
        type: DT_INT32
        type: DT_BOOL
      }
    }
  }
  attr {
    key: "slack_period"
    value {
      i: 0
    }
  }
}
node {
  name: "IteratorV2"
  op: "IteratorV2"
  device: "/device:CPU:0"
  attr {
    key: "_class"
    value {
      list {
        s: "loc:@ParallelMapDatasetV2_2"
      }
    }
  }
  attr {
    key: "_output_shapes"
    value {
      list {
        shape {
        }
      }
    }
  }
  attr {
    key: "container"
    value {
      s: ""
    }
  }
  attr {
    key: "output_shapes"
    value {
      list {
        shape {
          dim {
            size: -1
          }
          dim {
            size: -1
          }
        }
        shape {
          dim {
            size: -1
          }
        }
        shape {
          dim {
            size: -1
          }
          dim {
            size: -1
          }
          dim {
            size: 7
          }
        }
      }
    }
  }
  attr {
    key: "output_types"
    value {
      list {
        type: DT_INT64
        type: DT_INT32
        type: DT_BOOL
      }
    }
  }
  attr {
    key: "shared_name"
    value {
      s: ""
    }
  }
}
node {
  name: "MakeIterator"
  op: "MakeIterator"
  input: "PrefetchDataset"
  input: "IteratorV2"
  device: "/device:CPU:0"
  attr {
    key: "_class"
    value {
      list {
        s: "loc:@ParallelMapDatasetV2_2"
      }
    }
  }
}
node {
  name: "IteratorToStringHandle"
  op: "IteratorToStringHandle"
  input: "IteratorV2"
  device: "/device:CPU:0"
  attr {
    key: "_class"
    value {
      list {
        s: "loc:@ParallelMapDatasetV2_2"
      }
    }
  }
  attr {
    key: "_output_shapes"
    value {
      list {
        shape {
        }
      }
    }
  }
}
node {
  name: "IteratorGetNext"
  op: "IteratorGetNext"
  input: "IteratorV2"
  device: "/device:CPU:0"
  attr {
    key: "_class"
    value {
      list {
        s: "loc:@ParallelMapDatasetV2_2"
      }
    }
  }
  attr {
    key: "_output_shapes"
    value {
      list {
        shape {
          dim {
            size: -1
          }
          dim {
            size: -1
          }
        }
        shape {
          dim {
            size: -1
          }
        }
        shape {
          dim {
            size: -1
          }
          dim {
            size: -1
          }
          dim {
            size: 7
          }
        }
      }
    }
  }
  attr {
    key: "output_shapes"
    value {
      list {
        shape {
          dim {
            size: -1
          }
          dim {
            size: -1
          }
        }
        shape {
          dim {
            size: -1
          }
        }
        shape {
          dim {
            size: -1
          }
          dim {
            size: -1
          }
          dim {
            size: 7
          }
        }
      }
    }
  }
  attr {
    key: "output_types"
    value {
      list {
        type: DT_INT64
        type: DT_INT32
        type: DT_BOOL
      }
    }
  }
}
node {
  name: "random_normal/shape"
  op: "Const"
  attr {
    key: "_output_shapes"
    value {
      list {
        shape {
          dim {
            size: 2
          }
        }
      }
    }
  }
  attr {
    key: "dtype"
    value {
      type: DT_INT32
    }
  }
  attr {
    key: "value"
    value {
      tensor {
        dtype: DT_INT32
        tensor_shape {
          dim {
            size: 2
          }
        }
        tensor_content: "J\000\000\000\010\000\000\000"
      }
    }
  }
}
node {
  name: "random_normal/mean"
  op: "Const"
  attr {
    key: "_output_shapes"
    value {
      list {
        shape {
        }
      }
    }
  }
  attr {
    key: "dtype"
    value {
      type: DT_FLOAT
    }
  }
  attr {
    key: "value"
    value {
      tensor {
        dtype: DT_FLOAT
        tensor_shape {
        }
        float_val: 0.0
      }
    }
  }
}
node {
  name: "random_normal/stddev"
  op: "Const"
  attr {
    key: "_output_shapes"
    value {
      list {
        shape {
        }
      }
    }
  }
  attr {
    key: "dtype"
    value {
      type: DT_FLOAT
    }
  }
  attr {
    key: "value"
    value {
      tensor {
        dtype: DT_FLOAT
        tensor_shape {
        }
        float_val: 1.0
      }
    }
  }
}
node {
  name: "random_normal/RandomStandardNormal"
  op: "RandomStandardNormal"
  input: "random_normal/shape"
  attr {
    key: "T"
    value {
      type: DT_INT32
    }
  }
  attr {
    key: "_output_shapes"
    value {
      list {
        shape {
          dim {
            size: 74
          }
          dim {
            size: 8
          }
        }
      }
    }
  }
  attr {
    key: "dtype"
    value {
      type: DT_FLOAT
    }
  }
  attr {
    key: "seed"
    value {
      i: 0
    }
  }
  attr {
    key: "seed2"
    value {
      i: 0
    }
  }
}
node {
  name: "random_normal/mul"
  op: "Mul"
  input: "random_normal/RandomStandardNormal"
  input: "random_normal/stddev"
  attr {
    key: "T"
    value {
      type: DT_FLOAT
    }
  }
  attr {
    key: "_output_shapes"
    value {
      list {
        shape {
          dim {
            size: 74
          }
          dim {
            size: 8
          }
        }
      }
    }
  }
}
node {
  name: "random_normal"
  op: "AddV2"
  input: "random_normal/mul"
  input: "random_normal/mean"
  attr {
    key: "T"
    value {
      type: DT_FLOAT
    }
  }
  attr {
    key: "_output_shapes"
    value {
      list {
        shape {
          dim {
            size: 74
          }
          dim {
            size: 8
          }
        }
      }
    }
  }
}
node {
  name: "embeddings"
  op: "VarHandleOp"
  attr {
    key: "_class"
    value {
      list {
        s: "loc:@embeddings"
      }
    }
  }
  attr {
    key: "_output_shapes"
    value {
      list {
        shape {
        }
      }
    }
  }
  attr {
    key: "allowed_devices"
    value {
      list {
      }
    }
  }
  attr {
    key: "container"
    value {
      s: ""
    }
  }
  attr {
    key: "dtype"
    value {
      type: DT_FLOAT
    }
  }
  attr {
    key: "shape"
    value {
      shape {
        dim {
          size: 74
        }
        dim {
          size: 8
        }
      }
    }
  }
  attr {
    key: "shared_name"
    value {
      s: "embeddings"
    }
  }
}
node {
  name: "embeddings/IsInitialized/VarIsInitializedOp"
  op: "VarIsInitializedOp"
  input: "embeddings"
  attr {
    key: "_output_shapes"
    value {
      list {
        shape {
        }
      }
    }
  }
}
node {
  name: "embeddings/Assign"
  op: "AssignVariableOp"
  input: "embeddings"
  input: "random_normal"
  attr {
    key: "dtype"
    value {
      type: DT_FLOAT
    }
  }
}
node {
  name: "embeddings/Read/ReadVariableOp"
  op: "ReadVariableOp"
  input: "embeddings"
  attr {
    key: "_output_shapes"
    value {
      list {
        shape {
          dim {
            size: 74
          }
          dim {
            size: 8
          }
        }
      }
    }
  }
  attr {
    key: "dtype"
    value {
      type: DT_FLOAT
    }
  }
}
node {
  name: "embedding_lookup"
  op: "ResourceGather"
  input: "embeddings"
  input: "IteratorGetNext"
  attr {
    key: "Tindices"
    value {
      type: DT_INT64
    }
  }
  attr {
    key: "_class"
    value {
      list {
        s: "loc:@embeddings"
      }
    }
  }
  attr {
    key: "_output_shapes"
    value {
      list {
        shape {
          dim {
            size: -1
          }
          dim {
            size: -1
          }
          dim {
            size: 8
          }
        }
      }
    }
  }
  attr {
    key: "batch_dims"
    value {
      i: 0
    }
  }
  attr {
    key: "dtype"
    value {
      type: DT_FLOAT
    }
  }
  attr {
    key: "validate_indices"
    value {
      b: true
    }
  }
}
node {
  name: "embedding_lookup/Identity"
  op: "Identity"
  input: "embedding_lookup"
  attr {
    key: "T"
    value {
      type: DT_FLOAT
    }
  }
  attr {
    key: "_class"
    value {
      list {
        s: "loc:@embeddings"
      }
    }
  }
  attr {
    key: "_output_shapes"
    value {
      list {
        shape {
          dim {
            size: -1
          }
          dim {
            size: -1
          }
          dim {
            size: 8
          }
        }
      }
    }
  }
}
node {
  name: "embedding_lookup/Identity_1"
  op: "Identity"
  input: "embedding_lookup/Identity"
  attr {
    key: "T"
    value {
      type: DT_FLOAT
    }
  }
  attr {
    key: "_output_shapes"
    value {
      list {
        shape {
          dim {
            size: -1
          }
          dim {
            size: -1
          }
          dim {
            size: 8
          }
        }
      }
    }
  }
}
node {
  name: "DropoutWrapperInit/Const"
  op: "Const"
  attr {
    key: "_output_shapes"
    value {
      list {
        shape {
        }
      }
    }
  }
  attr {
    key: "dtype"
    value {
      type: DT_FLOAT
    }
  }
  attr {
    key: "value"
    value {
      tensor {
        dtype: DT_FLOAT
        tensor_shape {
        }
        float_val: 1.0
      }
    }
  }
}
node {
  name: "DropoutWrapperInit/Const_1"
  op: "Const"
  attr {
    key: "_output_shapes"
    value {
      list {
        shape {
        }
      }
    }
  }
  attr {
    key: "dtype"
    value {
      type: DT_FLOAT
    }
  }
  attr {
    key: "value"
    value {
      tensor {
        dtype: DT_FLOAT
        tensor_shape {
        }
        float_val: 0.800000011920929
      }
    }
  }
}
node {
  name: "DropoutWrapperInit/Const_2"
  op: "Const"
  attr {
    key: "_output_shapes"
    value {
      list {
        shape {
        }
      }
    }
  }
  attr {
    key: "dtype"
    value {
      type: DT_FLOAT
    }
  }
  attr {
    key: "value"
    value {
      tensor {
        dtype: DT_FLOAT
        tensor_shape {
        }
        float_val: 0.800000011920929
      }
    }
  }
}
node {
  name: "DropoutWrapperInit_1/Const"
  op: "Const"
  attr {
    key: "_output_shapes"
    value {
      list {
        shape {
        }
      }
    }
  }
  attr {
    key: "dtype"
    value {
      type: DT_FLOAT
    }
  }
  attr {
    key: "value"
    value {
      tensor {
        dtype: DT_FLOAT
        tensor_shape {
        }
        float_val: 1.0
      }
    }
  }
}
node {
  name: "DropoutWrapperInit_1/Const_1"
  op: "Const"
  attr {
    key: "_output_shapes"
    value {
      list {
        shape {
        }
      }
    }
  }
  attr {
    key: "dtype"
    value {
      type: DT_FLOAT
    }
  }
  attr {
    key: "value"
    value {
      tensor {
        dtype: DT_FLOAT
        tensor_shape {
        }
        float_val: 0.800000011920929
      }
    }
  }
}
node {
  name: "DropoutWrapperInit_1/Const_2"
  op: "Const"
  attr {
    key: "_output_shapes"
    value {
      list {
        shape {
        }
      }
    }
  }
  attr {
    key: "dtype"
    value {
      type: DT_FLOAT
    }
  }
  attr {
    key: "value"
    value {
      tensor {
        dtype: DT_FLOAT
        tensor_shape {
        }
        float_val: 0.800000011920929
      }
    }
  }
}
node {
  name: "DropoutWrapperInit_2/Const"
  op: "Const"
  attr {
    key: "_output_shapes"
    value {
      list {
        shape {
        }
      }
    }
  }
  attr {
    key: "dtype"
    value {
      type: DT_FLOAT
    }
  }
  attr {
    key: "value"
    value {
      tensor {
        dtype: DT_FLOAT
        tensor_shape {
        }
        float_val: 1.0
      }
    }
  }
}
node {
  name: "DropoutWrapperInit_2/Const_1"
  op: "Const"
  attr {
    key: "_output_shapes"
    value {
      list {
        shape {
        }
      }
    }
  }
  attr {
    key: "dtype"
    value {
      type: DT_FLOAT
    }
  }
  attr {
    key: "value"
    value {
      tensor {
        dtype: DT_FLOAT
        tensor_shape {
        }
        float_val: 0.800000011920929
      }
    }
  }
}
node {
  name: "DropoutWrapperInit_2/Const_2"
  op: "Const"
  attr {
    key: "_output_shapes"
    value {
      list {
        shape {
        }
      }
    }
  }
  attr {
    key: "dtype"
    value {
      type: DT_FLOAT
    }
  }
  attr {
    key: "value"
    value {
      tensor {
        dtype: DT_FLOAT
        tensor_shape {
        }
        float_val: 0.800000011920929
      }
    }
  }
}
node {
  name: "DropoutWrapperInit_3/Const"
  op: "Const"
  attr {
    key: "_output_shapes"
    value {
      list {
        shape {
        }
      }
    }
  }
  attr {
    key: "dtype"
    value {
      type: DT_FLOAT
    }
  }
  attr {
    key: "value"
    value {
      tensor {
        dtype: DT_FLOAT
        tensor_shape {
        }
        float_val: 1.0
      }
    }
  }
}
node {
  name: "DropoutWrapperInit_3/Const_1"
  op: "Const"
  attr {
    key: "_output_shapes"
    value {
      list {
        shape {
        }
      }
    }
  }
  attr {
    key: "dtype"
    value {
      type: DT_FLOAT
    }
  }
  attr {
    key: "value"
    value {
      tensor {
        dtype: DT_FLOAT
        tensor_shape {
        }
        float_val: 0.800000011920929
      }
    }
  }
}
node {
  name: "DropoutWrapperInit_3/Const_2"
  op: "Const"
  attr {
    key: "_output_shapes"
    value {
      list {
        shape {
        }
      }
    }
  }
  attr {
    key: "dtype"
    value {
      type: DT_FLOAT
    }
  }
  attr {
    key: "value"
    value {
      tensor {
        dtype: DT_FLOAT
        tensor_shape {
        }
        float_val: 0.800000011920929
      }
    }
  }
}
node {
  name: "DropoutWrapperInit_4/Const"
  op: "Const"
  attr {
    key: "_output_shapes"
    value {
      list {
        shape {
        }
      }
    }
  }
  attr {
    key: "dtype"
    value {
      type: DT_FLOAT
    }
  }
  attr {
    key: "value"
    value {
      tensor {
        dtype: DT_FLOAT
        tensor_shape {
        }
        float_val: 1.0
      }
    }
  }
}
node {
  name: "DropoutWrapperInit_4/Const_1"
  op: "Const"
  attr {
    key: "_output_shapes"
    value {
      list {
        shape {
        }
      }
    }
  }
  attr {
    key: "dtype"
    value {
      type: DT_FLOAT
    }
  }
  attr {
    key: "value"
    value {
      tensor {
        dtype: DT_FLOAT
        tensor_shape {
        }
        float_val: 0.800000011920929
      }
    }
  }
}
node {
  name: "DropoutWrapperInit_4/Const_2"
  op: "Const"
  attr {
    key: "_output_shapes"
    value {
      list {
        shape {
        }
      }
    }
  }
  attr {
    key: "dtype"
    value {
      type: DT_FLOAT
    }
  }
  attr {
    key: "value"
    value {
      tensor {
        dtype: DT_FLOAT
        tensor_shape {
        }
        float_val: 0.800000011920929
      }
    }
  }
}
node {
  name: "DropoutWrapperInit_5/Const"
  op: "Const"
  attr {
    key: "_output_shapes"
    value {
      list {
        shape {
        }
      }
    }
  }
  attr {
    key: "dtype"
    value {
      type: DT_FLOAT
    }
  }
  attr {
    key: "value"
    value {
      tensor {
        dtype: DT_FLOAT
        tensor_shape {
        }
        float_val: 1.0
      }
    }
  }
}
node {
  name: "DropoutWrapperInit_5/Const_1"
  op: "Const"
  attr {
    key: "_output_shapes"
    value {
      list {
        shape {
        }
      }
    }
  }
  attr {
    key: "dtype"
    value {
      type: DT_FLOAT
    }
  }
  attr {
    key: "value"
    value {
      tensor {
        dtype: DT_FLOAT
        tensor_shape {
        }
        float_val: 0.800000011920929
      }
    }
  }
}
node {
  name: "DropoutWrapperInit_5/Const_2"
  op: "Const"
  attr {
    key: "_output_shapes"
    value {
      list {
        shape {
        }
      }
    }
  }
  attr {
    key: "dtype"
    value {
      type: DT_FLOAT
    }
  }
  attr {
    key: "value"
    value {
      tensor {
        dtype: DT_FLOAT
        tensor_shape {
        }
        float_val: 0.800000011920929
      }
    }
  }
}
node {
  name: "bidirectional_rnn/fw/fw/Rank"
  op: "Const"
  attr {
    key: "_output_shapes"
    value {
      list {
        shape {
        }
      }
    }
  }
  attr {
    key: "dtype"
    value {
      type: DT_INT32
    }
  }
  attr {
    key: "value"
    value {
      tensor {
        dtype: DT_INT32
        tensor_shape {
        }
        int_val: 3
      }
    }
  }
}
node {
  name: "bidirectional_rnn/fw/fw/range/start"
  op: "Const"
  attr {
    key: "_output_shapes"
    value {
      list {
        shape {
        }
      }
    }
  }
  attr {
    key: "dtype"
    value {
      type: DT_INT32
    }
  }
  attr {
    key: "value"
    value {
      tensor {
        dtype: DT_INT32
        tensor_shape {
        }
        int_val: 2
      }
    }
  }
}
node {
  name: "bidirectional_rnn/fw/fw/range/delta"
  op: "Const"
  attr {
    key: "_output_shapes"
    value {
      list {
        shape {
        }
      }
    }
  }
  attr {
    key: "dtype"
    value {
      type: DT_INT32
    }
  }
  attr {
    key: "value"
    value {
      tensor {
        dtype: DT_INT32
        tensor_shape {
        }
        int_val: 1
      }
    }
  }
}
node {
  name: "bidirectional_rnn/fw/fw/range"
  op: "Range"
  input: "bidirectional_rnn/fw/fw/range/start"
  input: "bidirectional_rnn/fw/fw/Rank"
  input: "bidirectional_rnn/fw/fw/range/delta"
  attr {
    key: "Tidx"
    value {
      type: DT_INT32
    }
  }
  attr {
    key: "_output_shapes"
    value {
      list {
        shape {
          dim {
            size: 1
          }
        }
      }
    }
  }
}
node {
  name: "bidirectional_rnn/fw/fw/concat/values_0"
  op: "Const"
  attr {
    key: "_output_shapes"
    value {
      list {
        shape {
          dim {
            size: 2
          }
        }
      }
    }
  }
  attr {
    key: "dtype"
    value {
      type: DT_INT32
    }
  }
  attr {
    key: "value"
    value {
      tensor {
        dtype: DT_INT32
        tensor_shape {
          dim {
            size: 2
          }
        }
        tensor_content: "\001\000\000\000\000\000\000\000"
      }
    }
  }
}
node {
  name: "bidirectional_rnn/fw/fw/concat/axis"
  op: "Const"
  attr {
    key: "_output_shapes"
    value {
      list {
        shape {
        }
      }
    }
  }
  attr {
    key: "dtype"
    value {
      type: DT_INT32
    }
  }
  attr {
    key: "value"
    value {
      tensor {
        dtype: DT_INT32
        tensor_shape {
        }
        int_val: 0
      }
    }
  }
}
node {
  name: "bidirectional_rnn/fw/fw/concat"
  op: "ConcatV2"
  input: "bidirectional_rnn/fw/fw/concat/values_0"
  input: "bidirectional_rnn/fw/fw/range"
  input: "bidirectional_rnn/fw/fw/concat/axis"
  attr {
    key: "N"
    value {
      i: 2
    }
  }
  attr {
    key: "T"
    value {
      type: DT_INT32
    }
  }
  attr {
    key: "Tidx"
    value {
      type: DT_INT32
    }
  }
  attr {
    key: "_output_shapes"
    value {
      list {
        shape {
          dim {
            size: 3
          }
        }
      }
    }
  }
}
node {
  name: "bidirectional_rnn/fw/fw/transpose"
  op: "Transpose"
  input: "embedding_lookup/Identity_1"
  input: "bidirectional_rnn/fw/fw/concat"
  attr {
    key: "T"
    value {
      type: DT_FLOAT
    }
  }
  attr {
    key: "Tperm"
    value {
      type: DT_INT32
    }
  }
  attr {
    key: "_output_shapes"
    value {
      list {
        shape {
          dim {
            size: -1
          }
          dim {
            size: -1
          }
          dim {
            size: 8
          }
        }
      }
    }
  }
}
node {
  name: "bidirectional_rnn/fw/fw/sequence_length"
  op: "Identity"
  input: "IteratorGetNext:1"
  attr {
    key: "T"
    value {
      type: DT_INT32
    }
  }
  attr {
    key: "_output_shapes"
    value {
      list {
        shape {
          dim {
            size: -1
          }
        }
      }
    }
  }
}
node {
  name: "bidirectional_rnn/fw/fw/Shape"
  op: "Shape"
  input: "bidirectional_rnn/fw/fw/transpose"
  attr {
    key: "T"
    value {
      type: DT_FLOAT
    }
  }
  attr {
    key: "_output_shapes"
    value {
      list {
        shape {
          dim {
            size: 3
          }
        }
      }
    }
  }
  attr {
    key: "out_type"
    value {
      type: DT_INT32
    }
  }
}
node {
  name: "bidirectional_rnn/fw/fw/strided_slice/stack"
  op: "Const"
  attr {
    key: "_output_shapes"
    value {
      list {
        shape {
          dim {
            size: 1
          }
        }
      }
    }
  }
  attr {
    key: "dtype"
    value {
      type: DT_INT32
    }
  }
  attr {
    key: "value"
    value {
      tensor {
        dtype: DT_INT32
        tensor_shape {
          dim {
            size: 1
          }
        }
        int_val: 1
      }
    }
  }
}
node {
  name: "bidirectional_rnn/fw/fw/strided_slice/stack_1"
  op: "Const"
  attr {
    key: "_output_shapes"
    value {
      list {
        shape {
          dim {
            size: 1
          }
        }
      }
    }
  }
  attr {
    key: "dtype"
    value {
      type: DT_INT32
    }
  }
  attr {
    key: "value"
    value {
      tensor {
        dtype: DT_INT32
        tensor_shape {
          dim {
            size: 1
          }
        }
        int_val: 2
      }
    }
  }
}
node {
  name: "bidirectional_rnn/fw/fw/strided_slice/stack_2"
  op: "Const"
  attr {
    key: "_output_shapes"
    value {
      list {
        shape {
          dim {
            size: 1
          }
        }
      }
    }
  }
  attr {
    key: "dtype"
    value {
      type: DT_INT32
    }
  }
  attr {
    key: "value"
    value {
      tensor {
        dtype: DT_INT32
        tensor_shape {
          dim {
            size: 1
          }
        }
        int_val: 1
      }
    }
  }
}
node {
  name: "bidirectional_rnn/fw/fw/strided_slice"
  op: "StridedSlice"
  input: "bidirectional_rnn/fw/fw/Shape"
  input: "bidirectional_rnn/fw/fw/strided_slice/stack"
  input: "bidirectional_rnn/fw/fw/strided_slice/stack_1"
  input: "bidirectional_rnn/fw/fw/strided_slice/stack_2"
  attr {
    key: "Index"
    value {
      type: DT_INT32
    }
  }
  attr {
    key: "T"
    value {
      type: DT_INT32
    }
  }
  attr {
    key: "_output_shapes"
    value {
      list {
        shape {
        }
      }
    }
  }
  attr {
    key: "begin_mask"
    value {
      i: 0
    }
  }
  attr {
    key: "ellipsis_mask"
    value {
      i: 0
    }
  }
  attr {
    key: "end_mask"
    value {
      i: 0
    }
  }
  attr {
    key: "new_axis_mask"
    value {
      i: 0
    }
  }
  attr {
    key: "shrink_axis_mask"
    value {
      i: 1
    }
  }
}
node {
  name: "bidirectional_rnn/fw/fw/MultiRNNCellZeroState/DropoutWrapperZeroState/GRUCellZeroState/ExpandDims/dim"
  op: "Const"
  attr {
    key: "_output_shapes"
    value {
      list {
        shape {
        }
      }
    }
  }
  attr {
    key: "dtype"
    value {
      type: DT_INT32
    }
  }
  attr {
    key: "value"
    value {
      tensor {
        dtype: DT_INT32
        tensor_shape {
        }
        int_val: 0
      }
    }
  }
}
node {
  name: "bidirectional_rnn/fw/fw/MultiRNNCellZeroState/DropoutWrapperZeroState/GRUCellZeroState/ExpandDims"
  op: "ExpandDims"
  input: "bidirectional_rnn/fw/fw/strided_slice"
  input: "bidirectional_rnn/fw/fw/MultiRNNCellZeroState/DropoutWrapperZeroState/GRUCellZeroState/ExpandDims/dim"
  attr {
    key: "T"
    value {
      type: DT_INT32
    }
  }
  attr {
    key: "Tdim"
    value {
      type: DT_INT32
    }
  }
  attr {
    key: "_output_shapes"
    value {
      list {
        shape {
          dim {
            size: 1
          }
        }
      }
    }
  }
}
node {
  name: "bidirectional_rnn/fw/fw/MultiRNNCellZeroState/DropoutWrapperZeroState/GRUCellZeroState/Const"
  op: "Const"
  attr {
    key: "_output_shapes"
    value {
      list {
        shape {
          dim {
            size: 1
          }
        }
      }
    }
  }
  attr {
    key: "dtype"
    value {
      type: DT_INT32
    }
  }
  attr {
    key: "value"
    value {
      tensor {
        dtype: DT_INT32
        tensor_shape {
          dim {
            size: 1
          }
        }
        int_val: 128
      }
    }
  }
}
node {
  name: "bidirectional_rnn/fw/fw/MultiRNNCellZeroState/DropoutWrapperZeroState/GRUCellZeroState/concat/axis"
  op: "Const"
  attr {
    key: "_output_shapes"
    value {
      list {
        shape {
        }
      }
    }
  }
  attr {
    key: "dtype"
    value {
      type: DT_INT32
    }
  }
  attr {
    key: "value"
    value {
      tensor {
        dtype: DT_INT32
        tensor_shape {
        }
        int_val: 0
      }
    }
  }
}
node {
  name: "bidirectional_rnn/fw/fw/MultiRNNCellZeroState/DropoutWrapperZeroState/GRUCellZeroState/concat"
  op: "ConcatV2"
  input: "bidirectional_rnn/fw/fw/MultiRNNCellZeroState/DropoutWrapperZeroState/GRUCellZeroState/ExpandDims"
  input: "bidirectional_rnn/fw/fw/MultiRNNCellZeroState/DropoutWrapperZeroState/GRUCellZeroState/Const"
  input: "bidirectional_rnn/fw/fw/MultiRNNCellZeroState/DropoutWrapperZeroState/GRUCellZeroState/concat/axis"
  attr {
    key: "N"
    value {
      i: 2
    }
  }
  attr {
    key: "T"
    value {
      type: DT_INT32
    }
  }
  attr {
    key: "Tidx"
    value {
      type: DT_INT32
    }
  }
  attr {
    key: "_output_shapes"
    value {
      list {
        shape {
          dim {
            size: 2
          }
        }
      }
    }
  }
}
node {
  name: "bidirectional_rnn/fw/fw/MultiRNNCellZeroState/DropoutWrapperZeroState/GRUCellZeroState/zeros/Const"
  op: "Const"
  attr {
    key: "_output_shapes"
    value {
      list {
        shape {
        }
      }
    }
  }
  attr {
    key: "dtype"
    value {
      type: DT_FLOAT
    }
  }
  attr {
    key: "value"
    value {
      tensor {
        dtype: DT_FLOAT
        tensor_shape {
        }
        float_val: 0.0
      }
    }
  }
}
node {
  name: "bidirectional_rnn/fw/fw/MultiRNNCellZeroState/DropoutWrapperZeroState/GRUCellZeroState/zeros"
  op: "Fill"
  input: "bidirectional_rnn/fw/fw/MultiRNNCellZeroState/DropoutWrapperZeroState/GRUCellZeroState/concat"
  input: "bidirectional_rnn/fw/fw/MultiRNNCellZeroState/DropoutWrapperZeroState/GRUCellZeroState/zeros/Const"
  attr {
    key: "T"
    value {
      type: DT_FLOAT
    }
  }
  attr {
    key: "_output_shapes"
    value {
      list {
        shape {
          dim {
            size: -1
          }
          dim {
            size: 128
          }
        }
      }
    }
  }
  attr {
    key: "index_type"
    value {
      type: DT_INT32
    }
  }
}
node {
  name: "bidirectional_rnn/fw/fw/MultiRNNCellZeroState/DropoutWrapperZeroState/GRUCellZeroState/ExpandDims_1/dim"
  op: "Const"
  attr {
    key: "_output_shapes"
    value {
      list {
        shape {
        }
      }
    }
  }
  attr {
    key: "dtype"
    value {
      type: DT_INT32
    }
  }
  attr {
    key: "value"
    value {
      tensor {
        dtype: DT_INT32
        tensor_shape {
        }
        int_val: 0
      }
    }
  }
}
node {
  name: "bidirectional_rnn/fw/fw/MultiRNNCellZeroState/DropoutWrapperZeroState/GRUCellZeroState/ExpandDims_1"
  op: "ExpandDims"
  input: "bidirectional_rnn/fw/fw/strided_slice"
  input: "bidirectional_rnn/fw/fw/MultiRNNCellZeroState/DropoutWrapperZeroState/GRUCellZeroState/ExpandDims_1/dim"
  attr {
    key: "T"
    value {
      type: DT_INT32
    }
  }
  attr {
    key: "Tdim"
    value {
      type: DT_INT32
    }
  }
  attr {
    key: "_output_shapes"
    value {
      list {
        shape {
          dim {
            size: 1
          }
        }
      }
    }
  }
}
node {
  name: "bidirectional_rnn/fw/fw/MultiRNNCellZeroState/DropoutWrapperZeroState/GRUCellZeroState/Const_1"
  op: "Const"
  attr {
    key: "_output_shapes"
    value {
      list {
        shape {
          dim {
            size: 1
          }
        }
      }
    }
  }
  attr {
    key: "dtype"
    value {
      type: DT_INT32
    }
  }
  attr {
    key: "value"
    value {
      tensor {
        dtype: DT_INT32
        tensor_shape {
          dim {
            size: 1
          }
        }
        int_val: 128
      }
    }
  }
}
node {
  name: "bidirectional_rnn/fw/fw/MultiRNNCellZeroState/DropoutWrapperZeroState_1/GRUCellZeroState/ExpandDims/dim"
  op: "Const"
  attr {
    key: "_output_shapes"
    value {
      list {
        shape {
        }
      }
    }
  }
  attr {
    key: "dtype"
    value {
      type: DT_INT32
    }
  }
  attr {
    key: "value"
    value {
      tensor {
        dtype: DT_INT32
        tensor_shape {
        }
        int_val: 0
      }
    }
  }
}
node {
  name: "bidirectional_rnn/fw/fw/MultiRNNCellZeroState/DropoutWrapperZeroState_1/GRUCellZeroState/ExpandDims"
  op: "ExpandDims"
  input: "bidirectional_rnn/fw/fw/strided_slice"
  input: "bidirectional_rnn/fw/fw/MultiRNNCellZeroState/DropoutWrapperZeroState_1/GRUCellZeroState/ExpandDims/dim"
  attr {
    key: "T"
    value {
      type: DT_INT32
    }
  }
  attr {
    key: "Tdim"
    value {
      type: DT_INT32
    }
  }
  attr {
    key: "_output_shapes"
    value {
      list {
        shape {
          dim {
            size: 1
          }
        }
      }
    }
  }
}
node {
  name: "bidirectional_rnn/fw/fw/MultiRNNCellZeroState/DropoutWrapperZeroState_1/GRUCellZeroState/Const"
  op: "Const"
  attr {
    key: "_output_shapes"
    value {
      list {
        shape {
          dim {
            size: 1
          }
        }
      }
    }
  }
  attr {
    key: "dtype"
    value {
      type: DT_INT32
    }
  }
  attr {
    key: "value"
    value {
      tensor {
        dtype: DT_INT32
        tensor_shape {
          dim {
            size: 1
          }
        }
        int_val: 128
      }
    }
  }
}
node {
  name: "bidirectional_rnn/fw/fw/MultiRNNCellZeroState/DropoutWrapperZeroState_1/GRUCellZeroState/concat/axis"
  op: "Const"
  attr {
    key: "_output_shapes"
    value {
      list {
        shape {
        }
      }
    }
  }
  attr {
    key: "dtype"
    value {
      type: DT_INT32
    }
  }
  attr {
    key: "value"
    value {
      tensor {
        dtype: DT_INT32
        tensor_shape {
        }
        int_val: 0
      }
    }
  }
}
node {
  name: "bidirectional_rnn/fw/fw/MultiRNNCellZeroState/DropoutWrapperZeroState_1/GRUCellZeroState/concat"
  op: "ConcatV2"
  input: "bidirectional_rnn/fw/fw/MultiRNNCellZeroState/DropoutWrapperZeroState_1/GRUCellZeroState/ExpandDims"
  input: "bidirectional_rnn/fw/fw/MultiRNNCellZeroState/DropoutWrapperZeroState_1/GRUCellZeroState/Const"
  input: "bidirectional_rnn/fw/fw/MultiRNNCellZeroState/DropoutWrapperZeroState_1/GRUCellZeroState/concat/axis"
  attr {
    key: "N"
    value {
      i: 2
    }
  }
  attr {
    key: "T"
    value {
      type: DT_INT32
    }
  }
  attr {
    key: "Tidx"
    value {
      type: DT_INT32
    }
  }
  attr {
    key: "_output_shapes"
    value {
      list {
        shape {
          dim {
            size: 2
          }
        }
      }
    }
  }
}
node {
  name: "bidirectional_rnn/fw/fw/MultiRNNCellZeroState/DropoutWrapperZeroState_1/GRUCellZeroState/zeros/Const"
  op: "Const"
  attr {
    key: "_output_shapes"
    value {
      list {
        shape {
        }
      }
    }
  }
  attr {
    key: "dtype"
    value {
      type: DT_FLOAT
    }
  }
  attr {
    key: "value"
    value {
      tensor {
        dtype: DT_FLOAT
        tensor_shape {
        }
        float_val: 0.0
      }
    }
  }
}
node {
  name: "bidirectional_rnn/fw/fw/MultiRNNCellZeroState/DropoutWrapperZeroState_1/GRUCellZeroState/zeros"
  op: "Fill"
  input: "bidirectional_rnn/fw/fw/MultiRNNCellZeroState/DropoutWrapperZeroState_1/GRUCellZeroState/concat"
  input: "bidirectional_rnn/fw/fw/MultiRNNCellZeroState/DropoutWrapperZeroState_1/GRUCellZeroState/zeros/Const"
  attr {
    key: "T"
    value {
      type: DT_FLOAT
    }
  }
  attr {
    key: "_output_shapes"
    value {
      list {
        shape {
          dim {
            size: -1
          }
          dim {
            size: 128
          }
        }
      }
    }
  }
  attr {
    key: "index_type"
    value {
      type: DT_INT32
    }
  }
}
node {
  name: "bidirectional_rnn/fw/fw/MultiRNNCellZeroState/DropoutWrapperZeroState_1/GRUCellZeroState/ExpandDims_1/dim"
  op: "Const"
  attr {
    key: "_output_shapes"
    value {
      list {
        shape {
        }
      }
    }
  }
  attr {
    key: "dtype"
    value {
      type: DT_INT32
    }
  }
  attr {
    key: "value"
    value {
      tensor {
        dtype: DT_INT32
        tensor_shape {
        }
        int_val: 0
      }
    }
  }
}
node {
  name: "bidirectional_rnn/fw/fw/MultiRNNCellZeroState/DropoutWrapperZeroState_1/GRUCellZeroState/ExpandDims_1"
  op: "ExpandDims"
  input: "bidirectional_rnn/fw/fw/strided_slice"
  input: "bidirectional_rnn/fw/fw/MultiRNNCellZeroState/DropoutWrapperZeroState_1/GRUCellZeroState/ExpandDims_1/dim"
  attr {
    key: "T"
    value {
      type: DT_INT32
    }
  }
  attr {
    key: "Tdim"
    value {
      type: DT_INT32
    }
  }
  attr {
    key: "_output_shapes"
    value {
      list {
        shape {
          dim {
            size: 1
          }
        }
      }
    }
  }
}
node {
  name: "bidirectional_rnn/fw/fw/MultiRNNCellZeroState/DropoutWrapperZeroState_1/GRUCellZeroState/Const_1"
  op: "Const"
  attr {
    key: "_output_shapes"
    value {
      list {
        shape {
          dim {
            size: 1
          }
        }
      }
    }
  }
  attr {
    key: "dtype"
    value {
      type: DT_INT32
    }
  }
  attr {
    key: "value"
    value {
      tensor {
        dtype: DT_INT32
        tensor_shape {
          dim {
            size: 1
          }
        }
        int_val: 128
      }
    }
  }
}
node {
  name: "bidirectional_rnn/fw/fw/MultiRNNCellZeroState/DropoutWrapperZeroState_2/GRUCellZeroState/ExpandDims/dim"
  op: "Const"
  attr {
    key: "_output_shapes"
    value {
      list {
        shape {
        }
      }
    }
  }
  attr {
    key: "dtype"
    value {
      type: DT_INT32
    }
  }
  attr {
    key: "value"
    value {
      tensor {
        dtype: DT_INT32
        tensor_shape {
        }
        int_val: 0
      }
    }
  }
}
node {
  name: "bidirectional_rnn/fw/fw/MultiRNNCellZeroState/DropoutWrapperZeroState_2/GRUCellZeroState/ExpandDims"
  op: "ExpandDims"
  input: "bidirectional_rnn/fw/fw/strided_slice"
  input: "bidirectional_rnn/fw/fw/MultiRNNCellZeroState/DropoutWrapperZeroState_2/GRUCellZeroState/ExpandDims/dim"
  attr {
    key: "T"
    value {
      type: DT_INT32
    }
  }
  attr {
    key: "Tdim"
    value {
      type: DT_INT32
    }
  }
  attr {
    key: "_output_shapes"
    value {
      list {
        shape {
          dim {
            size: 1
          }
        }
      }
    }
  }
}
node {
  name: "bidirectional_rnn/fw/fw/MultiRNNCellZeroState/DropoutWrapperZeroState_2/GRUCellZeroState/Const"
  op: "Const"
  attr {
    key: "_output_shapes"
    value {
      list {
        shape {
          dim {
            size: 1
          }
        }
      }
    }
  }
  attr {
    key: "dtype"
    value {
      type: DT_INT32
    }
  }
  attr {
    key: "value"
    value {
      tensor {
        dtype: DT_INT32
        tensor_shape {
          dim {
            size: 1
          }
        }
        int_val: 128
      }
    }
  }
}
node {
  name: "bidirectional_rnn/fw/fw/MultiRNNCellZeroState/DropoutWrapperZeroState_2/GRUCellZeroState/concat/axis"
  op: "Const"
  attr {
    key: "_output_shapes"
    value {
      list {
        shape {
        }
      }
    }
  }
  attr {
    key: "dtype"
    value {
      type: DT_INT32
    }
  }
  attr {
    key: "value"
    value {
      tensor {
        dtype: DT_INT32
        tensor_shape {
        }
        int_val: 0
      }
    }
  }
}
node {
  name: "bidirectional_rnn/fw/fw/MultiRNNCellZeroState/DropoutWrapperZeroState_2/GRUCellZeroState/concat"
  op: "ConcatV2"
  input: "bidirectional_rnn/fw/fw/MultiRNNCellZeroState/DropoutWrapperZeroState_2/GRUCellZeroState/ExpandDims"
  input: "bidirectional_rnn/fw/fw/MultiRNNCellZeroState/DropoutWrapperZeroState_2/GRUCellZeroState/Const"
  input: "bidirectional_rnn/fw/fw/MultiRNNCellZeroState/DropoutWrapperZeroState_2/GRUCellZeroState/concat/axis"
  attr {
    key: "N"
    value {
      i: 2
    }
  }
  attr {
    key: "T"
    value {
      type: DT_INT32
    }
  }
  attr {
    key: "Tidx"
    value {
      type: DT_INT32
    }
  }
  attr {
    key: "_output_shapes"
    value {
      list {
        shape {
          dim {
            size: 2
          }
        }
      }
    }
  }
}
node {
  name: "bidirectional_rnn/fw/fw/MultiRNNCellZeroState/DropoutWrapperZeroState_2/GRUCellZeroState/zeros/Const"
  op: "Const"
  attr {
    key: "_output_shapes"
    value {
      list {
        shape {
        }
      }
    }
  }
  attr {
    key: "dtype"
    value {
      type: DT_FLOAT
    }
  }
  attr {
    key: "value"
    value {
      tensor {
        dtype: DT_FLOAT
        tensor_shape {
        }
        float_val: 0.0
      }
    }
  }
}
node {
  name: "bidirectional_rnn/fw/fw/MultiRNNCellZeroState/DropoutWrapperZeroState_2/GRUCellZeroState/zeros"
  op: "Fill"
  input: "bidirectional_rnn/fw/fw/MultiRNNCellZeroState/DropoutWrapperZeroState_2/GRUCellZeroState/concat"
  input: "bidirectional_rnn/fw/fw/MultiRNNCellZeroState/DropoutWrapperZeroState_2/GRUCellZeroState/zeros/Const"
  attr {
    key: "T"
    value {
      type: DT_FLOAT
    }
  }
  attr {
    key: "_output_shapes"
    value {
      list {
        shape {
          dim {
            size: -1
          }
          dim {
            size: 128
          }
        }
      }
    }
  }
  attr {
    key: "index_type"
    value {
      type: DT_INT32
    }
  }
}
node {
  name: "bidirectional_rnn/fw/fw/MultiRNNCellZeroState/DropoutWrapperZeroState_2/GRUCellZeroState/ExpandDims_1/dim"
  op: "Const"
  attr {
    key: "_output_shapes"
    value {
      list {
        shape {
        }
      }
    }
  }
  attr {
    key: "dtype"
    value {
      type: DT_INT32
    }
  }
  attr {
    key: "value"
    value {
      tensor {
        dtype: DT_INT32
        tensor_shape {
        }
        int_val: 0
      }
    }
  }
}
node {
  name: "bidirectional_rnn/fw/fw/MultiRNNCellZeroState/DropoutWrapperZeroState_2/GRUCellZeroState/ExpandDims_1"
  op: "ExpandDims"
  input: "bidirectional_rnn/fw/fw/strided_slice"
  input: "bidirectional_rnn/fw/fw/MultiRNNCellZeroState/DropoutWrapperZeroState_2/GRUCellZeroState/ExpandDims_1/dim"
  attr {
    key: "T"
    value {
      type: DT_INT32
    }
  }
  attr {
    key: "Tdim"
    value {
      type: DT_INT32
    }
  }
  attr {
    key: "_output_shapes"
    value {
      list {
        shape {
          dim {
            size: 1
          }
        }
      }
    }
  }
}
node {
  name: "bidirectional_rnn/fw/fw/MultiRNNCellZeroState/DropoutWrapperZeroState_2/GRUCellZeroState/Const_1"
  op: "Const"
  attr {
    key: "_output_shapes"
    value {
      list {
        shape {
          dim {
            size: 1
          }
        }
      }
    }
  }
  attr {
    key: "dtype"
    value {
      type: DT_INT32
    }
  }
  attr {
    key: "value"
    value {
      tensor {
        dtype: DT_INT32
        tensor_shape {
          dim {
            size: 1
          }
        }
        int_val: 128
      }
    }
  }
}
node {
  name: "bidirectional_rnn/fw/fw/Shape_1"
  op: "Shape"
  input: "bidirectional_rnn/fw/fw/sequence_length"
  attr {
    key: "T"
    value {
      type: DT_INT32
    }
  }
  attr {
    key: "_output_shapes"
    value {
      list {
        shape {
          dim {
            size: 1
          }
        }
      }
    }
  }
  attr {
    key: "out_type"
    value {
      type: DT_INT32
    }
  }
}
node {
  name: "bidirectional_rnn/fw/fw/stack"
  op: "Pack"
  input: "bidirectional_rnn/fw/fw/strided_slice"
  attr {
    key: "N"
    value {
      i: 1
    }
  }
  attr {
    key: "T"
    value {
      type: DT_INT32
    }
  }
  attr {
    key: "_output_shapes"
    value {
      list {
        shape {
          dim {
            size: 1
          }
        }
      }
    }
  }
  attr {
    key: "axis"
    value {
      i: 0
    }
  }
}
node {
  name: "bidirectional_rnn/fw/fw/Equal"
  op: "Equal"
  input: "bidirectional_rnn/fw/fw/Shape_1"
  input: "bidirectional_rnn/fw/fw/stack"
  attr {
    key: "T"
    value {
      type: DT_INT32
    }
  }
  attr {
    key: "_output_shapes"
    value {
      list {
        shape {
          dim {
            size: 1
          }
        }
      }
    }
  }
  attr {
    key: "incompatible_shape_error"
    value {
      b: true
    }
  }
}
node {
  name: "bidirectional_rnn/fw/fw/Const"
  op: "Const"
  attr {
    key: "_output_shapes"
    value {
      list {
        shape {
          dim {
            size: 1
          }
        }
      }
    }
  }
  attr {
    key: "dtype"
    value {
      type: DT_INT32
    }
  }
  attr {
    key: "value"
    value {
      tensor {
        dtype: DT_INT32
        tensor_shape {
          dim {
            size: 1
          }
        }
        int_val: 0
      }
    }
  }
}
node {
  name: "bidirectional_rnn/fw/fw/All"
  op: "All"
  input: "bidirectional_rnn/fw/fw/Equal"
  input: "bidirectional_rnn/fw/fw/Const"
  attr {
    key: "Tidx"
    value {
      type: DT_INT32
    }
  }
  attr {
    key: "_output_shapes"
    value {
      list {
        shape {
        }
      }
    }
  }
  attr {
    key: "keep_dims"
    value {
      b: false
    }
  }
}
node {
  name: "bidirectional_rnn/fw/fw/Assert/Const"
  op: "Const"
  attr {
    key: "_output_shapes"
    value {
      list {
        shape {
        }
      }
    }
  }
  attr {
    key: "dtype"
    value {
      type: DT_STRING
    }
  }
  attr {
    key: "value"
    value {
      tensor {
        dtype: DT_STRING
        tensor_shape {
        }
        string_val: "Expected shape for Tensor bidirectional_rnn/fw/fw/sequence_length:0 is "
      }
    }
  }
}
node {
  name: "bidirectional_rnn/fw/fw/Assert/Const_1"
  op: "Const"
  attr {
    key: "_output_shapes"
    value {
      list {
        shape {
        }
      }
    }
  }
  attr {
    key: "dtype"
    value {
      type: DT_STRING
    }
  }
  attr {
    key: "value"
    value {
      tensor {
        dtype: DT_STRING
        tensor_shape {
        }
        string_val: " but saw shape: "
      }
    }
  }
}
node {
  name: "bidirectional_rnn/fw/fw/Assert/Assert/data_0"
  op: "Const"
  attr {
    key: "_output_shapes"
    value {
      list {
        shape {
        }
      }
    }
  }
  attr {
    key: "dtype"
    value {
      type: DT_STRING
    }
  }
  attr {
    key: "value"
    value {
      tensor {
        dtype: DT_STRING
        tensor_shape {
        }
        string_val: "Expected shape for Tensor bidirectional_rnn/fw/fw/sequence_length:0 is "
      }
    }
  }
}
node {
  name: "bidirectional_rnn/fw/fw/Assert/Assert/data_2"
  op: "Const"
  attr {
    key: "_output_shapes"
    value {
      list {
        shape {
        }
      }
    }
  }
  attr {
    key: "dtype"
    value {
      type: DT_STRING
    }
  }
  attr {
    key: "value"
    value {
      tensor {
        dtype: DT_STRING
        tensor_shape {
        }
        string_val: " but saw shape: "
      }
    }
  }
}
node {
  name: "bidirectional_rnn/fw/fw/Assert/Assert"
  op: "Assert"
  input: "bidirectional_rnn/fw/fw/All"
  input: "bidirectional_rnn/fw/fw/Assert/Assert/data_0"
  input: "bidirectional_rnn/fw/fw/stack"
  input: "bidirectional_rnn/fw/fw/Assert/Assert/data_2"
  input: "bidirectional_rnn/fw/fw/Shape_1"
  attr {
    key: "T"
    value {
      list {
        type: DT_STRING
        type: DT_INT32
        type: DT_STRING
        type: DT_INT32
      }
    }
  }
  attr {
    key: "summarize"
    value {
      i: 3
    }
  }
}
node {
  name: "bidirectional_rnn/fw/fw/CheckSeqLen"
  op: "Identity"
  input: "bidirectional_rnn/fw/fw/sequence_length"
  input: "^bidirectional_rnn/fw/fw/Assert/Assert"
  attr {
    key: "T"
    value {
      type: DT_INT32
    }
  }
  attr {
    key: "_output_shapes"
    value {
      list {
        shape {
          dim {
            size: -1
          }
        }
      }
    }
  }
}
node {
  name: "bidirectional_rnn/fw/fw/Shape_2"
  op: "Shape"
  input: "bidirectional_rnn/fw/fw/transpose"
  attr {
    key: "T"
    value {
      type: DT_FLOAT
    }
  }
  attr {
    key: "_output_shapes"
    value {
      list {
        shape {
          dim {
            size: 3
          }
        }
      }
    }
  }
  attr {
    key: "out_type"
    value {
      type: DT_INT32
    }
  }
}
node {
  name: "bidirectional_rnn/fw/fw/strided_slice_1/stack"
  op: "Const"
  attr {
    key: "_output_shapes"
    value {
      list {
        shape {
          dim {
            size: 1
          }
        }
      }
    }
  }
  attr {
    key: "dtype"
    value {
      type: DT_INT32
    }
  }
  attr {
    key: "value"
    value {
      tensor {
        dtype: DT_INT32
        tensor_shape {
          dim {
            size: 1
          }
        }
        int_val: 0
      }
    }
  }
}
node {
  name: "bidirectional_rnn/fw/fw/strided_slice_1/stack_1"
  op: "Const"
  attr {
    key: "_output_shapes"
    value {
      list {
        shape {
          dim {
            size: 1
          }
        }
      }
    }
  }
  attr {
    key: "dtype"
    value {
      type: DT_INT32
    }
  }
  attr {
    key: "value"
    value {
      tensor {
        dtype: DT_INT32
        tensor_shape {
          dim {
            size: 1
          }
        }
        int_val: 1
      }
    }
  }
}
node {
  name: "bidirectional_rnn/fw/fw/strided_slice_1/stack_2"
  op: "Const"
  attr {
    key: "_output_shapes"
    value {
      list {
        shape {
          dim {
            size: 1
          }
        }
      }
    }
  }
  attr {
    key: "dtype"
    value {
      type: DT_INT32
    }
  }
  attr {
    key: "value"
    value {
      tensor {
        dtype: DT_INT32
        tensor_shape {
          dim {
            size: 1
          }
        }
        int_val: 1
      }
    }
  }
}
node {
  name: "bidirectional_rnn/fw/fw/strided_slice_1"
  op: "StridedSlice"
  input: "bidirectional_rnn/fw/fw/Shape_2"
  input: "bidirectional_rnn/fw/fw/strided_slice_1/stack"
  input: "bidirectional_rnn/fw/fw/strided_slice_1/stack_1"
  input: "bidirectional_rnn/fw/fw/strided_slice_1/stack_2"
  attr {
    key: "Index"
    value {
      type: DT_INT32
    }
  }
  attr {
    key: "T"
    value {
      type: DT_INT32
    }
  }
  attr {
    key: "_output_shapes"
    value {
      list {
        shape {
        }
      }
    }
  }
  attr {
    key: "begin_mask"
    value {
      i: 0
    }
  }
  attr {
    key: "ellipsis_mask"
    value {
      i: 0
    }
  }
  attr {
    key: "end_mask"
    value {
      i: 0
    }
  }
  attr {
    key: "new_axis_mask"
    value {
      i: 0
    }
  }
  attr {
    key: "shrink_axis_mask"
    value {
      i: 1
    }
  }
}
node {
  name: "bidirectional_rnn/fw/fw/Shape_3"
  op: "Shape"
  input: "bidirectional_rnn/fw/fw/transpose"
  attr {
    key: "T"
    value {
      type: DT_FLOAT
    }
  }
  attr {
    key: "_output_shapes"
    value {
      list {
        shape {
          dim {
            size: 3
          }
        }
      }
    }
  }
  attr {
    key: "out_type"
    value {
      type: DT_INT32
    }
  }
}
node {
  name: "bidirectional_rnn/fw/fw/strided_slice_2/stack"
  op: "Const"
  attr {
    key: "_output_shapes"
    value {
      list {
        shape {
          dim {
            size: 1
          }
        }
      }
    }
  }
  attr {
    key: "dtype"
    value {
      type: DT_INT32
    }
  }
  attr {
    key: "value"
    value {
      tensor {
        dtype: DT_INT32
        tensor_shape {
          dim {
            size: 1
          }
        }
        int_val: 1
      }
    }
  }
}
node {
  name: "bidirectional_rnn/fw/fw/strided_slice_2/stack_1"
  op: "Const"
  attr {
    key: "_output_shapes"
    value {
      list {
        shape {
          dim {
            size: 1
          }
        }
      }
    }
  }
  attr {
    key: "dtype"
    value {
      type: DT_INT32
    }
  }
  attr {
    key: "value"
    value {
      tensor {
        dtype: DT_INT32
        tensor_shape {
          dim {
            size: 1
          }
        }
        int_val: 2
      }
    }
  }
}
node {
  name: "bidirectional_rnn/fw/fw/strided_slice_2/stack_2"
  op: "Const"
  attr {
    key: "_output_shapes"
    value {
      list {
        shape {
          dim {
            size: 1
          }
        }
      }
    }
  }
  attr {
    key: "dtype"
    value {
      type: DT_INT32
    }
  }
  attr {
    key: "value"
    value {
      tensor {
        dtype: DT_INT32
        tensor_shape {
          dim {
            size: 1
          }
        }
        int_val: 1
      }
    }
  }
}
node {
  name: "bidirectional_rnn/fw/fw/strided_slice_2"
  op: "StridedSlice"
  input: "bidirectional_rnn/fw/fw/Shape_3"
  input: "bidirectional_rnn/fw/fw/strided_slice_2/stack"
  input: "bidirectional_rnn/fw/fw/strided_slice_2/stack_1"
  input: "bidirectional_rnn/fw/fw/strided_slice_2/stack_2"
  attr {
    key: "Index"
    value {
      type: DT_INT32
    }
  }
  attr {
    key: "T"
    value {
      type: DT_INT32
    }
  }
  attr {
    key: "_output_shapes"
    value {
      list {
        shape {
        }
      }
    }
  }
  attr {
    key: "begin_mask"
    value {
      i: 0
    }
  }
  attr {
    key: "ellipsis_mask"
    value {
      i: 0
    }
  }
  attr {
    key: "end_mask"
    value {
      i: 0
    }
  }
  attr {
    key: "new_axis_mask"
    value {
      i: 0
    }
  }
  attr {
    key: "shrink_axis_mask"
    value {
      i: 1
    }
  }
}
node {
  name: "bidirectional_rnn/fw/fw/ExpandDims/dim"
  op: "Const"
  attr {
    key: "_output_shapes"
    value {
      list {
        shape {
        }
      }
    }
  }
  attr {
    key: "dtype"
    value {
      type: DT_INT32
    }
  }
  attr {
    key: "value"
    value {
      tensor {
        dtype: DT_INT32
        tensor_shape {
        }
        int_val: 0
      }
    }
  }
}
node {
  name: "bidirectional_rnn/fw/fw/ExpandDims"
  op: "ExpandDims"
  input: "bidirectional_rnn/fw/fw/strided_slice_2"
  input: "bidirectional_rnn/fw/fw/ExpandDims/dim"
  attr {
    key: "T"
    value {
      type: DT_INT32
    }
  }
  attr {
    key: "Tdim"
    value {
      type: DT_INT32
    }
  }
  attr {
    key: "_output_shapes"
    value {
      list {
        shape {
          dim {
            size: 1
          }
        }
      }
    }
  }
}
node {
  name: "bidirectional_rnn/fw/fw/Const_1"
  op: "Const"
  attr {
    key: "_output_shapes"
    value {
      list {
        shape {
          dim {
            size: 1
          }
        }
      }
    }
  }
  attr {
    key: "dtype"
    value {
      type: DT_INT32
    }
  }
  attr {
    key: "value"
    value {
      tensor {
        dtype: DT_INT32
        tensor_shape {
          dim {
            size: 1
          }
        }
        int_val: 128
      }
    }
  }
}
node {
  name: "bidirectional_rnn/fw/fw/concat_1/axis"
  op: "Const"
  attr {
    key: "_output_shapes"
    value {
      list {
        shape {
        }
      }
    }
  }
  attr {
    key: "dtype"
    value {
      type: DT_INT32
    }
  }
  attr {
    key: "value"
    value {
      tensor {
        dtype: DT_INT32
        tensor_shape {
        }
        int_val: 0
      }
    }
  }
}
node {
  name: "bidirectional_rnn/fw/fw/concat_1"
  op: "ConcatV2"
  input: "bidirectional_rnn/fw/fw/ExpandDims"
  input: "bidirectional_rnn/fw/fw/Const_1"
  input: "bidirectional_rnn/fw/fw/concat_1/axis"
  attr {
    key: "N"
    value {
      i: 2
    }
  }
  attr {
    key: "T"
    value {
      type: DT_INT32
    }
  }
  attr {
    key: "Tidx"
    value {
      type: DT_INT32
    }
  }
  attr {
    key: "_output_shapes"
    value {
      list {
        shape {
          dim {
            size: 2
          }
        }
      }
    }
  }
}
node {
  name: "bidirectional_rnn/fw/fw/zeros/Const"
  op: "Const"
  attr {
    key: "_output_shapes"
    value {
      list {
        shape {
        }
      }
    }
  }
  attr {
    key: "dtype"
    value {
      type: DT_FLOAT
    }
  }
  attr {
    key: "value"
    value {
      tensor {
        dtype: DT_FLOAT
        tensor_shape {
        }
        float_val: 0.0
      }
    }
  }
}
node {
  name: "bidirectional_rnn/fw/fw/zeros"
  op: "Fill"
  input: "bidirectional_rnn/fw/fw/concat_1"
  input: "bidirectional_rnn/fw/fw/zeros/Const"
  attr {
    key: "T"
    value {
      type: DT_FLOAT
    }
  }
  attr {
    key: "_output_shapes"
    value {
      list {
        shape {
          dim {
            size: -1
          }
          dim {
            size: 128
          }
        }
      }
    }
  }
  attr {
    key: "index_type"
    value {
      type: DT_INT32
    }
  }
}
node {
  name: "bidirectional_rnn/fw/fw/Const_2"
  op: "Const"
  attr {
    key: "_output_shapes"
    value {
      list {
        shape {
          dim {
            size: 1
          }
        }
      }
    }
  }
  attr {
    key: "dtype"
    value {
      type: DT_INT32
    }
  }
  attr {
    key: "value"
    value {
      tensor {
        dtype: DT_INT32
        tensor_shape {
          dim {
            size: 1
          }
        }
        int_val: 0
      }
    }
  }
}
node {
  name: "bidirectional_rnn/fw/fw/Min"
  op: "Min"
  input: "bidirectional_rnn/fw/fw/CheckSeqLen"
  input: "bidirectional_rnn/fw/fw/Const_2"
  attr {
    key: "T"
    value {
      type: DT_INT32
    }
  }
  attr {
    key: "Tidx"
    value {
      type: DT_INT32
    }
  }
  attr {
    key: "_output_shapes"
    value {
      list {
        shape {
        }
      }
    }
  }
  attr {
    key: "keep_dims"
    value {
      b: false
    }
  }
}
node {
  name: "bidirectional_rnn/fw/fw/Const_3"
  op: "Const"
  attr {
    key: "_output_shapes"
    value {
      list {
        shape {
          dim {
            size: 1
          }
        }
      }
    }
  }
  attr {
    key: "dtype"
    value {
      type: DT_INT32
    }
  }
  attr {
    key: "value"
    value {
      tensor {
        dtype: DT_INT32
        tensor_shape {
          dim {
            size: 1
          }
        }
        int_val: 0
      }
    }
  }
}
node {
  name: "bidirectional_rnn/fw/fw/Max"
  op: "Max"
  input: "bidirectional_rnn/fw/fw/CheckSeqLen"
  input: "bidirectional_rnn/fw/fw/Const_3"
  attr {
    key: "T"
    value {
      type: DT_INT32
    }
  }
  attr {
    key: "Tidx"
    value {
      type: DT_INT32
    }
  }
  attr {
    key: "_output_shapes"
    value {
      list {
        shape {
        }
      }
    }
  }
  attr {
    key: "keep_dims"
    value {
      b: false
    }
  }
}
node {
  name: "bidirectional_rnn/fw/fw/time"
  op: "Const"
  attr {
    key: "_output_shapes"
    value {
      list {
        shape {
        }
      }
    }
  }
  attr {
    key: "dtype"
    value {
      type: DT_INT32
    }
  }
  attr {
    key: "value"
    value {
      tensor {
        dtype: DT_INT32
        tensor_shape {
        }
        int_val: 0
      }
    }
  }
}
node {
  name: "bidirectional_rnn/fw/fw/TensorArrayV2/element_shape"
  op: "Const"
  attr {
    key: "_output_shapes"
    value {
      list {
        shape {
          dim {
            size: 2
          }
        }
      }
    }
  }
  attr {
    key: "dtype"
    value {
      type: DT_INT32
    }
  }
  attr {
    key: "value"
    value {
      tensor {
        dtype: DT_INT32
        tensor_shape {
          dim {
            size: 2
          }
        }
        tensor_content: "\377\377\377\377\200\000\000\000"
      }
    }
  }
}
node {
  name: "bidirectional_rnn/fw/fw/TensorArrayV2"
  op: "TensorListReserve"
  input: "bidirectional_rnn/fw/fw/TensorArrayV2/element_shape"
  input: "bidirectional_rnn/fw/fw/strided_slice_1"
  attr {
    key: "_output_shapes"
    value {
      list {
        shape {
        }
      }
    }
  }
  attr {
    key: "element_dtype"
    value {
      type: DT_FLOAT
    }
  }
  attr {
    key: "shape_type"
    value {
      type: DT_INT32
    }
  }
}
node {
  name: "bidirectional_rnn/fw/fw/TensorArrayV2_1/element_shape"
  op: "Const"
  attr {
    key: "_output_shapes"
    value {
      list {
        shape {
          dim {
            size: 2
          }
        }
      }
    }
  }
  attr {
    key: "dtype"
    value {
      type: DT_INT32
    }
  }
  attr {
    key: "value"
    value {
      tensor {
        dtype: DT_INT32
        tensor_shape {
          dim {
            size: 2
          }
        }
        tensor_content: "\377\377\377\377\010\000\000\000"
      }
    }
  }
}
node {
  name: "bidirectional_rnn/fw/fw/TensorArrayV2_1"
  op: "TensorListReserve"
  input: "bidirectional_rnn/fw/fw/TensorArrayV2_1/element_shape"
  input: "bidirectional_rnn/fw/fw/strided_slice_1"
  attr {
    key: "_output_shapes"
    value {
      list {
        shape {
        }
      }
    }
  }
  attr {
    key: "element_dtype"
    value {
      type: DT_FLOAT
    }
  }
  attr {
    key: "shape_type"
    value {
      type: DT_INT32
    }
  }
}
node {
  name: "bidirectional_rnn/fw/fw/TensorArrayUnstack/TensorListFromTensor/element_shape"
  op: "Const"
  attr {
    key: "_output_shapes"
    value {
      list {
        shape {
          dim {
            size: 2
          }
        }
      }
    }
  }
  attr {
    key: "dtype"
    value {
      type: DT_INT32
    }
  }
  attr {
    key: "value"
    value {
      tensor {
        dtype: DT_INT32
        tensor_shape {
          dim {
            size: 2
          }
        }
        tensor_content: "\377\377\377\377\010\000\000\000"
      }
    }
  }
}
node {
  name: "bidirectional_rnn/fw/fw/TensorArrayUnstack/TensorListFromTensor"
  op: "TensorListFromTensor"
  input: "bidirectional_rnn/fw/fw/transpose"
  input: "bidirectional_rnn/fw/fw/TensorArrayUnstack/TensorListFromTensor/element_shape"
  attr {
    key: "_output_shapes"
    value {
      list {
        shape {
        }
      }
    }
  }
  attr {
    key: "element_dtype"
    value {
      type: DT_FLOAT
    }
  }
  attr {
    key: "shape_type"
    value {
      type: DT_INT32
    }
  }
}
node {
  name: "bidirectional_rnn/fw/fw/Maximum/x"
  op: "Const"
  attr {
    key: "_output_shapes"
    value {
      list {
        shape {
        }
      }
    }
  }
  attr {
    key: "dtype"
    value {
      type: DT_INT32
    }
  }
  attr {
    key: "value"
    value {
      tensor {
        dtype: DT_INT32
        tensor_shape {
        }
        int_val: 1
      }
    }
  }
}
node {
  name: "bidirectional_rnn/fw/fw/Maximum"
  op: "Maximum"
  input: "bidirectional_rnn/fw/fw/Maximum/x"
  input: "bidirectional_rnn/fw/fw/Max"
  attr {
    key: "T"
    value {
      type: DT_INT32
    }
  }
  attr {
    key: "_output_shapes"
    value {
      list {
        shape {
        }
      }
    }
  }
}
node {
  name: "bidirectional_rnn/fw/fw/Minimum"
  op: "Minimum"
  input: "bidirectional_rnn/fw/fw/strided_slice_1"
  input: "bidirectional_rnn/fw/fw/Maximum"
  attr {
    key: "T"
    value {
      type: DT_INT32
    }
  }
  attr {
    key: "_output_shapes"
    value {
      list {
        shape {
        }
      }
    }
  }
}
node {
  name: "bidirectional_rnn/fw/fw/while/loop_counter"
  op: "Const"
  attr {
    key: "_output_shapes"
    value {
      list {
        shape {
        }
      }
    }
  }
  attr {
    key: "dtype"
    value {
      type: DT_INT32
    }
  }
  attr {
    key: "value"
    value {
      tensor {
        dtype: DT_INT32
        tensor_shape {
        }
        int_val: 0
      }
    }
  }
}
node {
  name: "bidirectional_rnn/fw/multi_rnn_cell/cell_0/gru_cell/gates/kernel/Initializer/random_uniform/shape"
  op: "Const"
  attr {
    key: "_class"
    value {
      list {
        s: "loc:@bidirectional_rnn/fw/multi_rnn_cell/cell_0/gru_cell/gates/kernel"
      }
    }
  }
  attr {
    key: "_output_shapes"
    value {
      list {
        shape {
          dim {
            size: 2
          }
        }
      }
    }
  }
  attr {
    key: "dtype"
    value {
      type: DT_INT32
    }
  }
  attr {
    key: "value"
    value {
      tensor {
        dtype: DT_INT32
        tensor_shape {
          dim {
            size: 2
          }
        }
        tensor_content: "\210\000\000\000\000\001\000\000"
      }
    }
  }
}
node {
  name: "bidirectional_rnn/fw/multi_rnn_cell/cell_0/gru_cell/gates/kernel/Initializer/random_uniform/min"
  op: "Const"
  attr {
    key: "_class"
    value {
      list {
        s: "loc:@bidirectional_rnn/fw/multi_rnn_cell/cell_0/gru_cell/gates/kernel"
      }
    }
  }
  attr {
    key: "_output_shapes"
    value {
      list {
        shape {
        }
      }
    }
  }
  attr {
    key: "dtype"
    value {
      type: DT_FLOAT
    }
  }
  attr {
    key: "value"
    value {
      tensor {
        dtype: DT_FLOAT
        tensor_shape {
        }
        float_val: -0.12371791154146194
      }
    }
  }
}
node {
  name: "bidirectional_rnn/fw/multi_rnn_cell/cell_0/gru_cell/gates/kernel/Initializer/random_uniform/max"
  op: "Const"
  attr {
    key: "_class"
    value {
      list {
        s: "loc:@bidirectional_rnn/fw/multi_rnn_cell/cell_0/gru_cell/gates/kernel"
      }
    }
  }
  attr {
    key: "_output_shapes"
    value {
      list {
        shape {
        }
      }
    }
  }
  attr {
    key: "dtype"
    value {
      type: DT_FLOAT
    }
  }
  attr {
    key: "value"
    value {
      tensor {
        dtype: DT_FLOAT
        tensor_shape {
        }
        float_val: 0.12371791154146194
      }
    }
  }
}
node {
  name: "bidirectional_rnn/fw/multi_rnn_cell/cell_0/gru_cell/gates/kernel/Initializer/random_uniform/RandomUniform"
  op: "RandomUniform"
  input: "bidirectional_rnn/fw/multi_rnn_cell/cell_0/gru_cell/gates/kernel/Initializer/random_uniform/shape"
  attr {
    key: "T"
    value {
      type: DT_INT32
    }
  }
  attr {
    key: "_class"
    value {
      list {
        s: "loc:@bidirectional_rnn/fw/multi_rnn_cell/cell_0/gru_cell/gates/kernel"
      }
    }
  }
  attr {
    key: "_output_shapes"
    value {
      list {
        shape {
          dim {
            size: 136
          }
          dim {
            size: 256
          }
        }
      }
    }
  }
  attr {
    key: "dtype"
    value {
      type: DT_FLOAT
    }
  }
  attr {
    key: "seed"
    value {
      i: 0
    }
  }
  attr {
    key: "seed2"
    value {
      i: 0
    }
  }
}
node {
  name: "bidirectional_rnn/fw/multi_rnn_cell/cell_0/gru_cell/gates/kernel/Initializer/random_uniform/sub"
  op: "Sub"
  input: "bidirectional_rnn/fw/multi_rnn_cell/cell_0/gru_cell/gates/kernel/Initializer/random_uniform/max"
  input: "bidirectional_rnn/fw/multi_rnn_cell/cell_0/gru_cell/gates/kernel/Initializer/random_uniform/min"
  attr {
    key: "T"
    value {
      type: DT_FLOAT
    }
  }
  attr {
    key: "_class"
    value {
      list {
        s: "loc:@bidirectional_rnn/fw/multi_rnn_cell/cell_0/gru_cell/gates/kernel"
      }
    }
  }
  attr {
    key: "_output_shapes"
    value {
      list {
        shape {
        }
      }
    }
  }
}
node {
  name: "bidirectional_rnn/fw/multi_rnn_cell/cell_0/gru_cell/gates/kernel/Initializer/random_uniform/mul"
  op: "Mul"
  input: "bidirectional_rnn/fw/multi_rnn_cell/cell_0/gru_cell/gates/kernel/Initializer/random_uniform/RandomUniform"
  input: "bidirectional_rnn/fw/multi_rnn_cell/cell_0/gru_cell/gates/kernel/Initializer/random_uniform/sub"
  attr {
    key: "T"
    value {
      type: DT_FLOAT
    }
  }
  attr {
    key: "_class"
    value {
      list {
        s: "loc:@bidirectional_rnn/fw/multi_rnn_cell/cell_0/gru_cell/gates/kernel"
      }
    }
  }
  attr {
    key: "_output_shapes"
    value {
      list {
        shape {
          dim {
            size: 136
          }
          dim {
            size: 256
          }
        }
      }
    }
  }
}
node {
  name: "bidirectional_rnn/fw/multi_rnn_cell/cell_0/gru_cell/gates/kernel/Initializer/random_uniform"
  op: "AddV2"
  input: "bidirectional_rnn/fw/multi_rnn_cell/cell_0/gru_cell/gates/kernel/Initializer/random_uniform/mul"
  input: "bidirectional_rnn/fw/multi_rnn_cell/cell_0/gru_cell/gates/kernel/Initializer/random_uniform/min"
  attr {
    key: "T"
    value {
      type: DT_FLOAT
    }
  }
  attr {
    key: "_class"
    value {
      list {
        s: "loc:@bidirectional_rnn/fw/multi_rnn_cell/cell_0/gru_cell/gates/kernel"
      }
    }
  }
  attr {
    key: "_output_shapes"
    value {
      list {
        shape {
          dim {
            size: 136
          }
          dim {
            size: 256
          }
        }
      }
    }
  }
}
node {
  name: "bidirectional_rnn/fw/multi_rnn_cell/cell_0/gru_cell/gates/kernel"
  op: "VarHandleOp"
  attr {
    key: "_class"
    value {
      list {
        s: "loc:@bidirectional_rnn/fw/multi_rnn_cell/cell_0/gru_cell/gates/kernel"
      }
    }
  }
  attr {
    key: "_output_shapes"
    value {
      list {
        shape {
        }
      }
    }
  }
  attr {
    key: "allowed_devices"
    value {
      list {
      }
    }
  }
  attr {
    key: "container"
    value {
      s: ""
    }
  }
  attr {
    key: "dtype"
    value {
      type: DT_FLOAT
    }
  }
  attr {
    key: "shape"
    value {
      shape {
        dim {
          size: 136
        }
        dim {
          size: 256
        }
      }
    }
  }
  attr {
    key: "shared_name"
    value {
      s: "bidirectional_rnn/fw/multi_rnn_cell/cell_0/gru_cell/gates/kernel"
    }
  }
}
node {
  name: "bidirectional_rnn/fw/multi_rnn_cell/cell_0/gru_cell/gates/kernel/IsInitialized/VarIsInitializedOp"
  op: "VarIsInitializedOp"
  input: "bidirectional_rnn/fw/multi_rnn_cell/cell_0/gru_cell/gates/kernel"
  attr {
    key: "_output_shapes"
    value {
      list {
        shape {
        }
      }
    }
  }
}
node {
  name: "bidirectional_rnn/fw/multi_rnn_cell/cell_0/gru_cell/gates/kernel/Assign"
  op: "AssignVariableOp"
  input: "bidirectional_rnn/fw/multi_rnn_cell/cell_0/gru_cell/gates/kernel"
  input: "bidirectional_rnn/fw/multi_rnn_cell/cell_0/gru_cell/gates/kernel/Initializer/random_uniform"
  attr {
    key: "dtype"
    value {
      type: DT_FLOAT
    }
  }
}
node {
  name: "bidirectional_rnn/fw/multi_rnn_cell/cell_0/gru_cell/gates/kernel/Read/ReadVariableOp"
  op: "ReadVariableOp"
  input: "bidirectional_rnn/fw/multi_rnn_cell/cell_0/gru_cell/gates/kernel"
  attr {
    key: "_output_shapes"
    value {
      list {
        shape {
          dim {
            size: 136
          }
          dim {
            size: 256
          }
        }
      }
    }
  }
  attr {
    key: "dtype"
    value {
      type: DT_FLOAT
    }
  }
}
node {
  name: "bidirectional_rnn/fw/multi_rnn_cell/cell_0/gru_cell/gates/kernel/Read/Identity"
  op: "Identity"
  input: "bidirectional_rnn/fw/multi_rnn_cell/cell_0/gru_cell/gates/kernel/Read/ReadVariableOp"
  attr {
    key: "T"
    value {
      type: DT_FLOAT
    }
  }
  attr {
    key: "_output_shapes"
    value {
      list {
        shape {
          dim {
            size: 136
          }
          dim {
            size: 256
          }
        }
      }
    }
  }
}
node {
  name: "bidirectional_rnn/fw/multi_rnn_cell/cell_0/gru_cell/gates/bias/Initializer/Const"
  op: "Const"
  attr {
    key: "_class"
    value {
      list {
        s: "loc:@bidirectional_rnn/fw/multi_rnn_cell/cell_0/gru_cell/gates/bias"
      }
    }
  }
  attr {
    key: "_output_shapes"
    value {
      list {
        shape {
          dim {
            size: 256
          }
        }
      }
    }
  }
  attr {
    key: "dtype"
    value {
      type: DT_FLOAT
    }
  }
  attr {
    key: "value"
    value {
      tensor {
        dtype: DT_FLOAT
        tensor_shape {
          dim {
            size: 256
          }
        }
        float_val: 1.0
      }
    }
  }
}
node {
  name: "bidirectional_rnn/fw/multi_rnn_cell/cell_0/gru_cell/gates/bias"
  op: "VarHandleOp"
  attr {
    key: "_class"
    value {
      list {
        s: "loc:@bidirectional_rnn/fw/multi_rnn_cell/cell_0/gru_cell/gates/bias"
      }
    }
  }
  attr {
    key: "_output_shapes"
    value {
      list {
        shape {
        }
      }
    }
  }
  attr {
    key: "allowed_devices"
    value {
      list {
      }
    }
  }
  attr {
    key: "container"
    value {
      s: ""
    }
  }
  attr {
    key: "dtype"
    value {
      type: DT_FLOAT
    }
  }
  attr {
    key: "shape"
    value {
      shape {
        dim {
          size: 256
        }
      }
    }
  }
  attr {
    key: "shared_name"
    value {
      s: "bidirectional_rnn/fw/multi_rnn_cell/cell_0/gru_cell/gates/bias"
    }
  }
}
node {
  name: "bidirectional_rnn/fw/multi_rnn_cell/cell_0/gru_cell/gates/bias/IsInitialized/VarIsInitializedOp"
  op: "VarIsInitializedOp"
  input: "bidirectional_rnn/fw/multi_rnn_cell/cell_0/gru_cell/gates/bias"
  attr {
    key: "_output_shapes"
    value {
      list {
        shape {
        }
      }
    }
  }
}
node {
  name: "bidirectional_rnn/fw/multi_rnn_cell/cell_0/gru_cell/gates/bias/Assign"
  op: "AssignVariableOp"
  input: "bidirectional_rnn/fw/multi_rnn_cell/cell_0/gru_cell/gates/bias"
  input: "bidirectional_rnn/fw/multi_rnn_cell/cell_0/gru_cell/gates/bias/Initializer/Const"
  attr {
    key: "dtype"
    value {
      type: DT_FLOAT
    }
  }
}
node {
  name: "bidirectional_rnn/fw/multi_rnn_cell/cell_0/gru_cell/gates/bias/Read/ReadVariableOp"
  op: "ReadVariableOp"
  input: "bidirectional_rnn/fw/multi_rnn_cell/cell_0/gru_cell/gates/bias"
  attr {
    key: "_output_shapes"
    value {
      list {
        shape {
          dim {
            size: 256
          }
        }
      }
    }
  }
  attr {
    key: "dtype"
    value {
      type: DT_FLOAT
    }
  }
}
node {
  name: "bidirectional_rnn/fw/multi_rnn_cell/cell_0/gru_cell/gates/bias/Read/Identity"
  op: "Identity"
  input: "bidirectional_rnn/fw/multi_rnn_cell/cell_0/gru_cell/gates/bias/Read/ReadVariableOp"
  attr {
    key: "T"
    value {
      type: DT_FLOAT
    }
  }
  attr {
    key: "_output_shapes"
    value {
      list {
        shape {
          dim {
            size: 256
          }
        }
      }
    }
  }
}
node {
  name: "bidirectional_rnn/fw/multi_rnn_cell/cell_0/gru_cell/candidate/kernel/Initializer/random_uniform/shape"
  op: "Const"
  attr {
    key: "_class"
    value {
      list {
        s: "loc:@bidirectional_rnn/fw/multi_rnn_cell/cell_0/gru_cell/candidate/kernel"
      }
    }
  }
  attr {
    key: "_output_shapes"
    value {
      list {
        shape {
          dim {
            size: 2
          }
        }
      }
    }
  }
  attr {
    key: "dtype"
    value {
      type: DT_INT32
    }
  }
  attr {
    key: "value"
    value {
      tensor {
        dtype: DT_INT32
        tensor_shape {
          dim {
            size: 2
          }
        }
        tensor_content: "\210\000\000\000\200\000\000\000"
      }
    }
  }
}
node {
  name: "bidirectional_rnn/fw/multi_rnn_cell/cell_0/gru_cell/candidate/kernel/Initializer/random_uniform/min"
  op: "Const"
  attr {
    key: "_class"
    value {
      list {
        s: "loc:@bidirectional_rnn/fw/multi_rnn_cell/cell_0/gru_cell/candidate/kernel"
      }
    }
  }
  attr {
    key: "_output_shapes"
    value {
      list {
        shape {
        }
      }
    }
  }
  attr {
    key: "dtype"
    value {
      type: DT_FLOAT
    }
  }
  attr {
    key: "value"
    value {
      tensor {
        dtype: DT_FLOAT
        tensor_shape {
        }
        float_val: -0.15075567364692688
      }
    }
  }
}
node {
  name: "bidirectional_rnn/fw/multi_rnn_cell/cell_0/gru_cell/candidate/kernel/Initializer/random_uniform/max"
  op: "Const"
  attr {
    key: "_class"
    value {
      list {
        s: "loc:@bidirectional_rnn/fw/multi_rnn_cell/cell_0/gru_cell/candidate/kernel"
      }
    }
  }
  attr {
    key: "_output_shapes"
    value {
      list {
        shape {
        }
      }
    }
  }
  attr {
    key: "dtype"
    value {
      type: DT_FLOAT
    }
  }
  attr {
    key: "value"
    value {
      tensor {
        dtype: DT_FLOAT
        tensor_shape {
        }
        float_val: 0.15075567364692688
      }
    }
  }
}
node {
  name: "bidirectional_rnn/fw/multi_rnn_cell/cell_0/gru_cell/candidate/kernel/Initializer/random_uniform/RandomUniform"
  op: "RandomUniform"
  input: "bidirectional_rnn/fw/multi_rnn_cell/cell_0/gru_cell/candidate/kernel/Initializer/random_uniform/shape"
  attr {
    key: "T"
    value {
      type: DT_INT32
    }
  }
  attr {
    key: "_class"
    value {
      list {
        s: "loc:@bidirectional_rnn/fw/multi_rnn_cell/cell_0/gru_cell/candidate/kernel"
      }
    }
  }
  attr {
    key: "_output_shapes"
    value {
      list {
        shape {
          dim {
            size: 136
          }
          dim {
            size: 128
          }
        }
      }
    }
  }
  attr {
    key: "dtype"
    value {
      type: DT_FLOAT
    }
  }
  attr {
    key: "seed"
    value {
      i: 0
    }
  }
  attr {
    key: "seed2"
    value {
      i: 0
    }
  }
}
node {
  name: "bidirectional_rnn/fw/multi_rnn_cell/cell_0/gru_cell/candidate/kernel/Initializer/random_uniform/sub"
  op: "Sub"
  input: "bidirectional_rnn/fw/multi_rnn_cell/cell_0/gru_cell/candidate/kernel/Initializer/random_uniform/max"
  input: "bidirectional_rnn/fw/multi_rnn_cell/cell_0/gru_cell/candidate/kernel/Initializer/random_uniform/min"
  attr {
    key: "T"
    value {
      type: DT_FLOAT
    }
  }
  attr {
    key: "_class"
    value {
      list {
        s: "loc:@bidirectional_rnn/fw/multi_rnn_cell/cell_0/gru_cell/candidate/kernel"
      }
    }
  }
  attr {
    key: "_output_shapes"
    value {
      list {
        shape {
        }
      }
    }
  }
}
node {
  name: "bidirectional_rnn/fw/multi_rnn_cell/cell_0/gru_cell/candidate/kernel/Initializer/random_uniform/mul"
  op: "Mul"
  input: "bidirectional_rnn/fw/multi_rnn_cell/cell_0/gru_cell/candidate/kernel/Initializer/random_uniform/RandomUniform"
  input: "bidirectional_rnn/fw/multi_rnn_cell/cell_0/gru_cell/candidate/kernel/Initializer/random_uniform/sub"
  attr {
    key: "T"
    value {
      type: DT_FLOAT
    }
  }
  attr {
    key: "_class"
    value {
      list {
        s: "loc:@bidirectional_rnn/fw/multi_rnn_cell/cell_0/gru_cell/candidate/kernel"
      }
    }
  }
  attr {
    key: "_output_shapes"
    value {
      list {
        shape {
          dim {
            size: 136
          }
          dim {
            size: 128
          }
        }
      }
    }
  }
}
node {
  name: "bidirectional_rnn/fw/multi_rnn_cell/cell_0/gru_cell/candidate/kernel/Initializer/random_uniform"
  op: "AddV2"
  input: "bidirectional_rnn/fw/multi_rnn_cell/cell_0/gru_cell/candidate/kernel/Initializer/random_uniform/mul"
  input: "bidirectional_rnn/fw/multi_rnn_cell/cell_0/gru_cell/candidate/kernel/Initializer/random_uniform/min"
  attr {
    key: "T"
    value {
      type: DT_FLOAT
    }
  }
  attr {
    key: "_class"
    value {
      list {
        s: "loc:@bidirectional_rnn/fw/multi_rnn_cell/cell_0/gru_cell/candidate/kernel"
      }
    }
  }
  attr {
    key: "_output_shapes"
    value {
      list {
        shape {
          dim {
            size: 136
          }
          dim {
            size: 128
          }
        }
      }
    }
  }
}
node {
  name: "bidirectional_rnn/fw/multi_rnn_cell/cell_0/gru_cell/candidate/kernel"
  op: "VarHandleOp"
  attr {
    key: "_class"
    value {
      list {
        s: "loc:@bidirectional_rnn/fw/multi_rnn_cell/cell_0/gru_cell/candidate/kernel"
      }
    }
  }
  attr {
    key: "_output_shapes"
    value {
      list {
        shape {
        }
      }
    }
  }
  attr {
    key: "allowed_devices"
    value {
      list {
      }
    }
  }
  attr {
    key: "container"
    value {
      s: ""
    }
  }
  attr {
    key: "dtype"
    value {
      type: DT_FLOAT
    }
  }
  attr {
    key: "shape"
    value {
      shape {
        dim {
          size: 136
        }
        dim {
          size: 128
        }
      }
    }
  }
  attr {
    key: "shared_name"
    value {
      s: "bidirectional_rnn/fw/multi_rnn_cell/cell_0/gru_cell/candidate/kernel"
    }
  }
}
node {
  name: "bidirectional_rnn/fw/multi_rnn_cell/cell_0/gru_cell/candidate/kernel/IsInitialized/VarIsInitializedOp"
  op: "VarIsInitializedOp"
  input: "bidirectional_rnn/fw/multi_rnn_cell/cell_0/gru_cell/candidate/kernel"
  attr {
    key: "_output_shapes"
    value {
      list {
        shape {
        }
      }
    }
  }
}
node {
  name: "bidirectional_rnn/fw/multi_rnn_cell/cell_0/gru_cell/candidate/kernel/Assign"
  op: "AssignVariableOp"
  input: "bidirectional_rnn/fw/multi_rnn_cell/cell_0/gru_cell/candidate/kernel"
  input: "bidirectional_rnn/fw/multi_rnn_cell/cell_0/gru_cell/candidate/kernel/Initializer/random_uniform"
  attr {
    key: "dtype"
    value {
      type: DT_FLOAT
    }
  }
}
node {
  name: "bidirectional_rnn/fw/multi_rnn_cell/cell_0/gru_cell/candidate/kernel/Read/ReadVariableOp"
  op: "ReadVariableOp"
  input: "bidirectional_rnn/fw/multi_rnn_cell/cell_0/gru_cell/candidate/kernel"
  attr {
    key: "_output_shapes"
    value {
      list {
        shape {
          dim {
            size: 136
          }
          dim {
            size: 128
          }
        }
      }
    }
  }
  attr {
    key: "dtype"
    value {
      type: DT_FLOAT
    }
  }
}
node {
  name: "bidirectional_rnn/fw/multi_rnn_cell/cell_0/gru_cell/candidate/kernel/Read/Identity"
  op: "Identity"
  input: "bidirectional_rnn/fw/multi_rnn_cell/cell_0/gru_cell/candidate/kernel/Read/ReadVariableOp"
  attr {
    key: "T"
    value {
      type: DT_FLOAT
    }
  }
  attr {
    key: "_output_shapes"
    value {
      list {
        shape {
          dim {
            size: 136
          }
          dim {
            size: 128
          }
        }
      }
    }
  }
}
node {
  name: "bidirectional_rnn/fw/multi_rnn_cell/cell_0/gru_cell/candidate/bias/Initializer/zeros"
  op: "Const"
  attr {
    key: "_class"
    value {
      list {
        s: "loc:@bidirectional_rnn/fw/multi_rnn_cell/cell_0/gru_cell/candidate/bias"
      }
    }
  }
  attr {
    key: "_output_shapes"
    value {
      list {
        shape {
          dim {
            size: 128
          }
        }
      }
    }
  }
  attr {
    key: "dtype"
    value {
      type: DT_FLOAT
    }
  }
  attr {
    key: "value"
    value {
      tensor {
        dtype: DT_FLOAT
        tensor_shape {
          dim {
            size: 128
          }
        }
        float_val: 0.0
      }
    }
  }
}
node {
  name: "bidirectional_rnn/fw/multi_rnn_cell/cell_0/gru_cell/candidate/bias"
  op: "VarHandleOp"
  attr {
    key: "_class"
    value {
      list {
        s: "loc:@bidirectional_rnn/fw/multi_rnn_cell/cell_0/gru_cell/candidate/bias"
      }
    }
  }
  attr {
    key: "_output_shapes"
    value {
      list {
        shape {
        }
      }
    }
  }
  attr {
    key: "allowed_devices"
    value {
      list {
      }
    }
  }
  attr {
    key: "container"
    value {
      s: ""
    }
  }
  attr {
    key: "dtype"
    value {
      type: DT_FLOAT
    }
  }
  attr {
    key: "shape"
    value {
      shape {
        dim {
          size: 128
        }
      }
    }
  }
  attr {
    key: "shared_name"
    value {
      s: "bidirectional_rnn/fw/multi_rnn_cell/cell_0/gru_cell/candidate/bias"
    }
  }
}
node {
  name: "bidirectional_rnn/fw/multi_rnn_cell/cell_0/gru_cell/candidate/bias/IsInitialized/VarIsInitializedOp"
  op: "VarIsInitializedOp"
  input: "bidirectional_rnn/fw/multi_rnn_cell/cell_0/gru_cell/candidate/bias"
  attr {
    key: "_output_shapes"
    value {
      list {
        shape {
        }
      }
    }
  }
}
node {
  name: "bidirectional_rnn/fw/multi_rnn_cell/cell_0/gru_cell/candidate/bias/Assign"
  op: "AssignVariableOp"
  input: "bidirectional_rnn/fw/multi_rnn_cell/cell_0/gru_cell/candidate/bias"
  input: "bidirectional_rnn/fw/multi_rnn_cell/cell_0/gru_cell/candidate/bias/Initializer/zeros"
  attr {
    key: "dtype"
    value {
      type: DT_FLOAT
    }
  }
}
node {
  name: "bidirectional_rnn/fw/multi_rnn_cell/cell_0/gru_cell/candidate/bias/Read/ReadVariableOp"
  op: "ReadVariableOp"
  input: "bidirectional_rnn/fw/multi_rnn_cell/cell_0/gru_cell/candidate/bias"
  attr {
    key: "_output_shapes"
    value {
      list {
        shape {
          dim {
            size: 128
          }
        }
      }
    }
  }
  attr {
    key: "dtype"
    value {
      type: DT_FLOAT
    }
  }
}
node {
  name: "bidirectional_rnn/fw/multi_rnn_cell/cell_0/gru_cell/candidate/bias/Read/Identity"
  op: "Identity"
  input: "bidirectional_rnn/fw/multi_rnn_cell/cell_0/gru_cell/candidate/bias/Read/ReadVariableOp"
  attr {
    key: "T"
    value {
      type: DT_FLOAT
    }
  }
  attr {
    key: "_output_shapes"
    value {
      list {
        shape {
          dim {
            size: 128
          }
        }
      }
    }
  }
}
node {
  name: "bidirectional_rnn/fw/multi_rnn_cell/cell_1/gru_cell/gates/kernel/Initializer/random_uniform/shape"
  op: "Const"
  attr {
    key: "_class"
    value {
      list {
        s: "loc:@bidirectional_rnn/fw/multi_rnn_cell/cell_1/gru_cell/gates/kernel"
      }
    }
  }
  attr {
    key: "_output_shapes"
    value {
      list {
        shape {
          dim {
            size: 2
          }
        }
      }
    }
  }
  attr {
    key: "dtype"
    value {
      type: DT_INT32
    }
  }
  attr {
    key: "value"
    value {
      tensor {
        dtype: DT_INT32
        tensor_shape {
          dim {
            size: 2
          }
        }
        tensor_content: "\000\001\000\000\000\001\000\000"
      }
    }
  }
}
node {
  name: "bidirectional_rnn/fw/multi_rnn_cell/cell_1/gru_cell/gates/kernel/Initializer/random_uniform/min"
  op: "Const"
  attr {
    key: "_class"
    value {
      list {
        s: "loc:@bidirectional_rnn/fw/multi_rnn_cell/cell_1/gru_cell/gates/kernel"
      }
    }
  }
  attr {
    key: "_output_shapes"
    value {
      list {
        shape {
        }
      }
    }
  }
  attr {
    key: "dtype"
    value {
      type: DT_FLOAT
    }
  }
  attr {
    key: "value"
    value {
      tensor {
        dtype: DT_FLOAT
        tensor_shape {
        }
        float_val: -0.10825317353010178
      }
    }
  }
}
node {
  name: "bidirectional_rnn/fw/multi_rnn_cell/cell_1/gru_cell/gates/kernel/Initializer/random_uniform/max"
  op: "Const"
  attr {
    key: "_class"
    value {
      list {
        s: "loc:@bidirectional_rnn/fw/multi_rnn_cell/cell_1/gru_cell/gates/kernel"
      }
    }
  }
  attr {
    key: "_output_shapes"
    value {
      list {
        shape {
        }
      }
    }
  }
  attr {
    key: "dtype"
    value {
      type: DT_FLOAT
    }
  }
  attr {
    key: "value"
    value {
      tensor {
        dtype: DT_FLOAT
        tensor_shape {
        }
        float_val: 0.10825317353010178
      }
    }
  }
}
node {
  name: "bidirectional_rnn/fw/multi_rnn_cell/cell_1/gru_cell/gates/kernel/Initializer/random_uniform/RandomUniform"
  op: "RandomUniform"
  input: "bidirectional_rnn/fw/multi_rnn_cell/cell_1/gru_cell/gates/kernel/Initializer/random_uniform/shape"
  attr {
    key: "T"
    value {
      type: DT_INT32
    }
  }
  attr {
    key: "_class"
    value {
      list {
        s: "loc:@bidirectional_rnn/fw/multi_rnn_cell/cell_1/gru_cell/gates/kernel"
      }
    }
  }
  attr {
    key: "_output_shapes"
    value {
      list {
        shape {
          dim {
            size: 256
          }
          dim {
            size: 256
          }
        }
      }
    }
  }
  attr {
    key: "dtype"
    value {
      type: DT_FLOAT
    }
  }
  attr {
    key: "seed"
    value {
      i: 0
    }
  }
  attr {
    key: "seed2"
    value {
      i: 0
    }
  }
}
node {
  name: "bidirectional_rnn/fw/multi_rnn_cell/cell_1/gru_cell/gates/kernel/Initializer/random_uniform/sub"
  op: "Sub"
  input: "bidirectional_rnn/fw/multi_rnn_cell/cell_1/gru_cell/gates/kernel/Initializer/random_uniform/max"
  input: "bidirectional_rnn/fw/multi_rnn_cell/cell_1/gru_cell/gates/kernel/Initializer/random_uniform/min"
  attr {
    key: "T"
    value {
      type: DT_FLOAT
    }
  }
  attr {
    key: "_class"
    value {
      list {
        s: "loc:@bidirectional_rnn/fw/multi_rnn_cell/cell_1/gru_cell/gates/kernel"
      }
    }
  }
  attr {
    key: "_output_shapes"
    value {
      list {
        shape {
        }
      }
    }
  }
}
node {
  name: "bidirectional_rnn/fw/multi_rnn_cell/cell_1/gru_cell/gates/kernel/Initializer/random_uniform/mul"
  op: "Mul"
  input: "bidirectional_rnn/fw/multi_rnn_cell/cell_1/gru_cell/gates/kernel/Initializer/random_uniform/RandomUniform"
  input: "bidirectional_rnn/fw/multi_rnn_cell/cell_1/gru_cell/gates/kernel/Initializer/random_uniform/sub"
  attr {
    key: "T"
    value {
      type: DT_FLOAT
    }
  }
  attr {
    key: "_class"
    value {
      list {
        s: "loc:@bidirectional_rnn/fw/multi_rnn_cell/cell_1/gru_cell/gates/kernel"
      }
    }
  }
  attr {
    key: "_output_shapes"
    value {
      list {
        shape {
          dim {
            size: 256
          }
          dim {
            size: 256
          }
        }
      }
    }
  }
}
node {
  name: "bidirectional_rnn/fw/multi_rnn_cell/cell_1/gru_cell/gates/kernel/Initializer/random_uniform"
  op: "AddV2"
  input: "bidirectional_rnn/fw/multi_rnn_cell/cell_1/gru_cell/gates/kernel/Initializer/random_uniform/mul"
  input: "bidirectional_rnn/fw/multi_rnn_cell/cell_1/gru_cell/gates/kernel/Initializer/random_uniform/min"
  attr {
    key: "T"
    value {
      type: DT_FLOAT
    }
  }
  attr {
    key: "_class"
    value {
      list {
        s: "loc:@bidirectional_rnn/fw/multi_rnn_cell/cell_1/gru_cell/gates/kernel"
      }
    }
  }
  attr {
    key: "_output_shapes"
    value {
      list {
        shape {
          dim {
            size: 256
          }
          dim {
            size: 256
          }
        }
      }
    }
  }
}
node {
  name: "bidirectional_rnn/fw/multi_rnn_cell/cell_1/gru_cell/gates/kernel"
  op: "VarHandleOp"
  attr {
    key: "_class"
    value {
      list {
        s: "loc:@bidirectional_rnn/fw/multi_rnn_cell/cell_1/gru_cell/gates/kernel"
      }
    }
  }
  attr {
    key: "_output_shapes"
    value {
      list {
        shape {
        }
      }
    }
  }
  attr {
    key: "allowed_devices"
    value {
      list {
      }
    }
  }
  attr {
    key: "container"
    value {
      s: ""
    }
  }
  attr {
    key: "dtype"
    value {
      type: DT_FLOAT
    }
  }
  attr {
    key: "shape"
    value {
      shape {
        dim {
          size: 256
        }
        dim {
          size: 256
        }
      }
    }
  }
  attr {
    key: "shared_name"
    value {
      s: "bidirectional_rnn/fw/multi_rnn_cell/cell_1/gru_cell/gates/kernel"
    }
  }
}
node {
  name: "bidirectional_rnn/fw/multi_rnn_cell/cell_1/gru_cell/gates/kernel/IsInitialized/VarIsInitializedOp"
  op: "VarIsInitializedOp"
  input: "bidirectional_rnn/fw/multi_rnn_cell/cell_1/gru_cell/gates/kernel"
  attr {
    key: "_output_shapes"
    value {
      list {
        shape {
        }
      }
    }
  }
}
node {
  name: "bidirectional_rnn/fw/multi_rnn_cell/cell_1/gru_cell/gates/kernel/Assign"
  op: "AssignVariableOp"
  input: "bidirectional_rnn/fw/multi_rnn_cell/cell_1/gru_cell/gates/kernel"
  input: "bidirectional_rnn/fw/multi_rnn_cell/cell_1/gru_cell/gates/kernel/Initializer/random_uniform"
  attr {
    key: "dtype"
    value {
      type: DT_FLOAT
    }
  }
}
node {
  name: "bidirectional_rnn/fw/multi_rnn_cell/cell_1/gru_cell/gates/kernel/Read/ReadVariableOp"
  op: "ReadVariableOp"
  input: "bidirectional_rnn/fw/multi_rnn_cell/cell_1/gru_cell/gates/kernel"
  attr {
    key: "_output_shapes"
    value {
      list {
        shape {
          dim {
            size: 256
          }
          dim {
            size: 256
          }
        }
      }
    }
  }
  attr {
    key: "dtype"
    value {
      type: DT_FLOAT
    }
  }
}
node {
  name: "bidirectional_rnn/fw/multi_rnn_cell/cell_1/gru_cell/gates/kernel/Read/Identity"
  op: "Identity"
  input: "bidirectional_rnn/fw/multi_rnn_cell/cell_1/gru_cell/gates/kernel/Read/ReadVariableOp"
  attr {
    key: "T"
    value {
      type: DT_FLOAT
    }
  }
  attr {
    key: "_output_shapes"
    value {
      list {
        shape {
          dim {
            size: 256
          }
          dim {
            size: 256
          }
        }
      }
    }
  }
}
node {
  name: "bidirectional_rnn/fw/multi_rnn_cell/cell_1/gru_cell/gates/bias/Initializer/Const"
  op: "Const"
  attr {
    key: "_class"
    value {
      list {
        s: "loc:@bidirectional_rnn/fw/multi_rnn_cell/cell_1/gru_cell/gates/bias"
      }
    }
  }
  attr {
    key: "_output_shapes"
    value {
      list {
        shape {
          dim {
            size: 256
          }
        }
      }
    }
  }
  attr {
    key: "dtype"
    value {
      type: DT_FLOAT
    }
  }
  attr {
    key: "value"
    value {
      tensor {
        dtype: DT_FLOAT
        tensor_shape {
          dim {
            size: 256
          }
        }
        float_val: 1.0
      }
    }
  }
}
node {
  name: "bidirectional_rnn/fw/multi_rnn_cell/cell_1/gru_cell/gates/bias"
  op: "VarHandleOp"
  attr {
    key: "_class"
    value {
      list {
        s: "loc:@bidirectional_rnn/fw/multi_rnn_cell/cell_1/gru_cell/gates/bias"
      }
    }
  }
  attr {
    key: "_output_shapes"
    value {
      list {
        shape {
        }
      }
    }
  }
  attr {
    key: "allowed_devices"
    value {
      list {
      }
    }
  }
  attr {
    key: "container"
    value {
      s: ""
    }
  }
  attr {
    key: "dtype"
    value {
      type: DT_FLOAT
    }
  }
  attr {
    key: "shape"
    value {
      shape {
        dim {
          size: 256
        }
      }
    }
  }
  attr {
    key: "shared_name"
    value {
      s: "bidirectional_rnn/fw/multi_rnn_cell/cell_1/gru_cell/gates/bias"
    }
  }
}
node {
  name: "bidirectional_rnn/fw/multi_rnn_cell/cell_1/gru_cell/gates/bias/IsInitialized/VarIsInitializedOp"
  op: "VarIsInitializedOp"
  input: "bidirectional_rnn/fw/multi_rnn_cell/cell_1/gru_cell/gates/bias"
  attr {
    key: "_output_shapes"
    value {
      list {
        shape {
        }
      }
    }
  }
}
node {
  name: "bidirectional_rnn/fw/multi_rnn_cell/cell_1/gru_cell/gates/bias/Assign"
  op: "AssignVariableOp"
  input: "bidirectional_rnn/fw/multi_rnn_cell/cell_1/gru_cell/gates/bias"
  input: "bidirectional_rnn/fw/multi_rnn_cell/cell_1/gru_cell/gates/bias/Initializer/Const"
  attr {
    key: "dtype"
    value {
      type: DT_FLOAT
    }
  }
}
node {
  name: "bidirectional_rnn/fw/multi_rnn_cell/cell_1/gru_cell/gates/bias/Read/ReadVariableOp"
  op: "ReadVariableOp"
  input: "bidirectional_rnn/fw/multi_rnn_cell/cell_1/gru_cell/gates/bias"
  attr {
    key: "_output_shapes"
    value {
      list {
        shape {
          dim {
            size: 256
          }
        }
      }
    }
  }
  attr {
    key: "dtype"
    value {
      type: DT_FLOAT
    }
  }
}
node {
  name: "bidirectional_rnn/fw/multi_rnn_cell/cell_1/gru_cell/gates/bias/Read/Identity"
  op: "Identity"
  input: "bidirectional_rnn/fw/multi_rnn_cell/cell_1/gru_cell/gates/bias/Read/ReadVariableOp"
  attr {
    key: "T"
    value {
      type: DT_FLOAT
    }
  }
  attr {
    key: "_output_shapes"
    value {
      list {
        shape {
          dim {
            size: 256
          }
        }
      }
    }
  }
}
node {
  name: "bidirectional_rnn/fw/multi_rnn_cell/cell_1/gru_cell/candidate/kernel/Initializer/random_uniform/shape"
  op: "Const"
  attr {
    key: "_class"
    value {
      list {
        s: "loc:@bidirectional_rnn/fw/multi_rnn_cell/cell_1/gru_cell/candidate/kernel"
      }
    }
  }
  attr {
    key: "_output_shapes"
    value {
      list {
        shape {
          dim {
            size: 2
          }
        }
      }
    }
  }
  attr {
    key: "dtype"
    value {
      type: DT_INT32
    }
  }
  attr {
    key: "value"
    value {
      tensor {
        dtype: DT_INT32
        tensor_shape {
          dim {
            size: 2
          }
        }
        tensor_content: "\000\001\000\000\200\000\000\000"
      }
    }
  }
}
node {
  name: "bidirectional_rnn/fw/multi_rnn_cell/cell_1/gru_cell/candidate/kernel/Initializer/random_uniform/min"
  op: "Const"
  attr {
    key: "_class"
    value {
      list {
        s: "loc:@bidirectional_rnn/fw/multi_rnn_cell/cell_1/gru_cell/candidate/kernel"
      }
    }
  }
  attr {
    key: "_output_shapes"
    value {
      list {
        shape {
        }
      }
    }
  }
  attr {
    key: "dtype"
    value {
      type: DT_FLOAT
    }
  }
  attr {
    key: "value"
    value {
      tensor {
        dtype: DT_FLOAT
        tensor_shape {
        }
        float_val: -0.125
      }
    }
  }
}
node {
  name: "bidirectional_rnn/fw/multi_rnn_cell/cell_1/gru_cell/candidate/kernel/Initializer/random_uniform/max"
  op: "Const"
  attr {
    key: "_class"
    value {
      list {
        s: "loc:@bidirectional_rnn/fw/multi_rnn_cell/cell_1/gru_cell/candidate/kernel"
      }
    }
  }
  attr {
    key: "_output_shapes"
    value {
      list {
        shape {
        }
      }
    }
  }
  attr {
    key: "dtype"
    value {
      type: DT_FLOAT
    }
  }
  attr {
    key: "value"
    value {
      tensor {
        dtype: DT_FLOAT
        tensor_shape {
        }
        float_val: 0.125
      }
    }
  }
}
node {
  name: "bidirectional_rnn/fw/multi_rnn_cell/cell_1/gru_cell/candidate/kernel/Initializer/random_uniform/RandomUniform"
  op: "RandomUniform"
  input: "bidirectional_rnn/fw/multi_rnn_cell/cell_1/gru_cell/candidate/kernel/Initializer/random_uniform/shape"
  attr {
    key: "T"
    value {
      type: DT_INT32
    }
  }
  attr {
    key: "_class"
    value {
      list {
        s: "loc:@bidirectional_rnn/fw/multi_rnn_cell/cell_1/gru_cell/candidate/kernel"
      }
    }
  }
  attr {
    key: "_output_shapes"
    value {
      list {
        shape {
          dim {
            size: 256
          }
          dim {
            size: 128
          }
        }
      }
    }
  }
  attr {
    key: "dtype"
    value {
      type: DT_FLOAT
    }
  }
  attr {
    key: "seed"
    value {
      i: 0
    }
  }
  attr {
    key: "seed2"
    value {
      i: 0
    }
  }
}
node {
  name: "bidirectional_rnn/fw/multi_rnn_cell/cell_1/gru_cell/candidate/kernel/Initializer/random_uniform/sub"
  op: "Sub"
  input: "bidirectional_rnn/fw/multi_rnn_cell/cell_1/gru_cell/candidate/kernel/Initializer/random_uniform/max"
  input: "bidirectional_rnn/fw/multi_rnn_cell/cell_1/gru_cell/candidate/kernel/Initializer/random_uniform/min"
  attr {
    key: "T"
    value {
      type: DT_FLOAT
    }
  }
  attr {
    key: "_class"
    value {
      list {
        s: "loc:@bidirectional_rnn/fw/multi_rnn_cell/cell_1/gru_cell/candidate/kernel"
      }
    }
  }
  attr {
    key: "_output_shapes"
    value {
      list {
        shape {
        }
      }
    }
  }
}
node {
  name: "bidirectional_rnn/fw/multi_rnn_cell/cell_1/gru_cell/candidate/kernel/Initializer/random_uniform/mul"
  op: "Mul"
  input: "bidirectional_rnn/fw/multi_rnn_cell/cell_1/gru_cell/candidate/kernel/Initializer/random_uniform/RandomUniform"
  input: "bidirectional_rnn/fw/multi_rnn_cell/cell_1/gru_cell/candidate/kernel/Initializer/random_uniform/sub"
  attr {
    key: "T"
    value {
      type: DT_FLOAT
    }
  }
  attr {
    key: "_class"
    value {
      list {
        s: "loc:@bidirectional_rnn/fw/multi_rnn_cell/cell_1/gru_cell/candidate/kernel"
      }
    }
  }
  attr {
    key: "_output_shapes"
    value {
      list {
        shape {
          dim {
            size: 256
          }
          dim {
            size: 128
          }
        }
      }
    }
  }
}
node {
  name: "bidirectional_rnn/fw/multi_rnn_cell/cell_1/gru_cell/candidate/kernel/Initializer/random_uniform"
  op: "AddV2"
  input: "bidirectional_rnn/fw/multi_rnn_cell/cell_1/gru_cell/candidate/kernel/Initializer/random_uniform/mul"
  input: "bidirectional_rnn/fw/multi_rnn_cell/cell_1/gru_cell/candidate/kernel/Initializer/random_uniform/min"
  attr {
    key: "T"
    value {
      type: DT_FLOAT
    }
  }
  attr {
    key: "_class"
    value {
      list {
        s: "loc:@bidirectional_rnn/fw/multi_rnn_cell/cell_1/gru_cell/candidate/kernel"
      }
    }
  }
  attr {
    key: "_output_shapes"
    value {
      list {
        shape {
          dim {
            size: 256
          }
          dim {
            size: 128
          }
        }
      }
    }
  }
}
node {
  name: "bidirectional_rnn/fw/multi_rnn_cell/cell_1/gru_cell/candidate/kernel"
  op: "VarHandleOp"
  attr {
    key: "_class"
    value {
      list {
        s: "loc:@bidirectional_rnn/fw/multi_rnn_cell/cell_1/gru_cell/candidate/kernel"
      }
    }
  }
  attr {
    key: "_output_shapes"
    value {
      list {
        shape {
        }
      }
    }
  }
  attr {
    key: "allowed_devices"
    value {
      list {
      }
    }
  }
  attr {
    key: "container"
    value {
      s: ""
    }
  }
  attr {
    key: "dtype"
    value {
      type: DT_FLOAT
    }
  }
  attr {
    key: "shape"
    value {
      shape {
        dim {
          size: 256
        }
        dim {
          size: 128
        }
      }
    }
  }
  attr {
    key: "shared_name"
    value {
      s: "bidirectional_rnn/fw/multi_rnn_cell/cell_1/gru_cell/candidate/kernel"
    }
  }
}
node {
  name: "bidirectional_rnn/fw/multi_rnn_cell/cell_1/gru_cell/candidate/kernel/IsInitialized/VarIsInitializedOp"
  op: "VarIsInitializedOp"
  input: "bidirectional_rnn/fw/multi_rnn_cell/cell_1/gru_cell/candidate/kernel"
  attr {
    key: "_output_shapes"
    value {
      list {
        shape {
        }
      }
    }
  }
}
node {
  name: "bidirectional_rnn/fw/multi_rnn_cell/cell_1/gru_cell/candidate/kernel/Assign"
  op: "AssignVariableOp"
  input: "bidirectional_rnn/fw/multi_rnn_cell/cell_1/gru_cell/candidate/kernel"
  input: "bidirectional_rnn/fw/multi_rnn_cell/cell_1/gru_cell/candidate/kernel/Initializer/random_uniform"
  attr {
    key: "dtype"
    value {
      type: DT_FLOAT
    }
  }
}
node {
  name: "bidirectional_rnn/fw/multi_rnn_cell/cell_1/gru_cell/candidate/kernel/Read/ReadVariableOp"
  op: "ReadVariableOp"
  input: "bidirectional_rnn/fw/multi_rnn_cell/cell_1/gru_cell/candidate/kernel"
  attr {
    key: "_output_shapes"
    value {
      list {
        shape {
          dim {
            size: 256
          }
          dim {
            size: 128
          }
        }
      }
    }
  }
  attr {
    key: "dtype"
    value {
      type: DT_FLOAT
    }
  }
}
node {
  name: "bidirectional_rnn/fw/multi_rnn_cell/cell_1/gru_cell/candidate/kernel/Read/Identity"
  op: "Identity"
  input: "bidirectional_rnn/fw/multi_rnn_cell/cell_1/gru_cell/candidate/kernel/Read/ReadVariableOp"
  attr {
    key: "T"
    value {
      type: DT_FLOAT
    }
  }
  attr {
    key: "_output_shapes"
    value {
      list {
        shape {
          dim {
            size: 256
          }
          dim {
            size: 128
          }
        }
      }
    }
  }
}
node {
  name: "bidirectional_rnn/fw/multi_rnn_cell/cell_1/gru_cell/candidate/bias/Initializer/zeros"
  op: "Const"
  attr {
    key: "_class"
    value {
      list {
        s: "loc:@bidirectional_rnn/fw/multi_rnn_cell/cell_1/gru_cell/candidate/bias"
      }
    }
  }
  attr {
    key: "_output_shapes"
    value {
      list {
        shape {
          dim {
            size: 128
          }
        }
      }
    }
  }
  attr {
    key: "dtype"
    value {
      type: DT_FLOAT
    }
  }
  attr {
    key: "value"
    value {
      tensor {
        dtype: DT_FLOAT
        tensor_shape {
          dim {
            size: 128
          }
        }
        float_val: 0.0
      }
    }
  }
}
node {
  name: "bidirectional_rnn/fw/multi_rnn_cell/cell_1/gru_cell/candidate/bias"
  op: "VarHandleOp"
  attr {
    key: "_class"
    value {
      list {
        s: "loc:@bidirectional_rnn/fw/multi_rnn_cell/cell_1/gru_cell/candidate/bias"
      }
    }
  }
  attr {
    key: "_output_shapes"
    value {
      list {
        shape {
        }
      }
    }
  }
  attr {
    key: "allowed_devices"
    value {
      list {
      }
    }
  }
  attr {
    key: "container"
    value {
      s: ""
    }
  }
  attr {
    key: "dtype"
    value {
      type: DT_FLOAT
    }
  }
  attr {
    key: "shape"
    value {
      shape {
        dim {
          size: 128
        }
      }
    }
  }
  attr {
    key: "shared_name"
    value {
      s: "bidirectional_rnn/fw/multi_rnn_cell/cell_1/gru_cell/candidate/bias"
    }
  }
}
node {
  name: "bidirectional_rnn/fw/multi_rnn_cell/cell_1/gru_cell/candidate/bias/IsInitialized/VarIsInitializedOp"
  op: "VarIsInitializedOp"
  input: "bidirectional_rnn/fw/multi_rnn_cell/cell_1/gru_cell/candidate/bias"
  attr {
    key: "_output_shapes"
    value {
      list {
        shape {
        }
      }
    }
  }
}
node {
  name: "bidirectional_rnn/fw/multi_rnn_cell/cell_1/gru_cell/candidate/bias/Assign"
  op: "AssignVariableOp"
  input: "bidirectional_rnn/fw/multi_rnn_cell/cell_1/gru_cell/candidate/bias"
  input: "bidirectional_rnn/fw/multi_rnn_cell/cell_1/gru_cell/candidate/bias/Initializer/zeros"
  attr {
    key: "dtype"
    value {
      type: DT_FLOAT
    }
  }
}
node {
  name: "bidirectional_rnn/fw/multi_rnn_cell/cell_1/gru_cell/candidate/bias/Read/ReadVariableOp"
  op: "ReadVariableOp"
  input: "bidirectional_rnn/fw/multi_rnn_cell/cell_1/gru_cell/candidate/bias"
  attr {
    key: "_output_shapes"
    value {
      list {
        shape {
          dim {
            size: 128
          }
        }
      }
    }
  }
  attr {
    key: "dtype"
    value {
      type: DT_FLOAT
    }
  }
}
node {
  name: "bidirectional_rnn/fw/multi_rnn_cell/cell_1/gru_cell/candidate/bias/Read/Identity"
  op: "Identity"
  input: "bidirectional_rnn/fw/multi_rnn_cell/cell_1/gru_cell/candidate/bias/Read/ReadVariableOp"
  attr {
    key: "T"
    value {
      type: DT_FLOAT
    }
  }
  attr {
    key: "_output_shapes"
    value {
      list {
        shape {
          dim {
            size: 128
          }
        }
      }
    }
  }
}
node {
  name: "bidirectional_rnn/fw/multi_rnn_cell/cell_2/gru_cell/gates/kernel/Initializer/random_uniform/shape"
  op: "Const"
  attr {
    key: "_class"
    value {
      list {
        s: "loc:@bidirectional_rnn/fw/multi_rnn_cell/cell_2/gru_cell/gates/kernel"
      }
    }
  }
  attr {
    key: "_output_shapes"
    value {
      list {
        shape {
          dim {
            size: 2
          }
        }
      }
    }
  }
  attr {
    key: "dtype"
    value {
      type: DT_INT32
    }
  }
  attr {
    key: "value"
    value {
      tensor {
        dtype: DT_INT32
        tensor_shape {
          dim {
            size: 2
          }
        }
        tensor_content: "\000\001\000\000\000\001\000\000"
      }
    }
  }
}
node {
  name: "bidirectional_rnn/fw/multi_rnn_cell/cell_2/gru_cell/gates/kernel/Initializer/random_uniform/min"
  op: "Const"
  attr {
    key: "_class"
    value {
      list {
        s: "loc:@bidirectional_rnn/fw/multi_rnn_cell/cell_2/gru_cell/gates/kernel"
      }
    }
  }
  attr {
    key: "_output_shapes"
    value {
      list {
        shape {
        }
      }
    }
  }
  attr {
    key: "dtype"
    value {
      type: DT_FLOAT
    }
  }
  attr {
    key: "value"
    value {
      tensor {
        dtype: DT_FLOAT
        tensor_shape {
        }
        float_val: -0.10825317353010178
      }
    }
  }
}
node {
  name: "bidirectional_rnn/fw/multi_rnn_cell/cell_2/gru_cell/gates/kernel/Initializer/random_uniform/max"
  op: "Const"
  attr {
    key: "_class"
    value {
      list {
        s: "loc:@bidirectional_rnn/fw/multi_rnn_cell/cell_2/gru_cell/gates/kernel"
      }
    }
  }
  attr {
    key: "_output_shapes"
    value {
      list {
        shape {
        }
      }
    }
  }
  attr {
    key: "dtype"
    value {
      type: DT_FLOAT
    }
  }
  attr {
    key: "value"
    value {
      tensor {
        dtype: DT_FLOAT
        tensor_shape {
        }
        float_val: 0.10825317353010178
      }
    }
  }
}
node {
  name: "bidirectional_rnn/fw/multi_rnn_cell/cell_2/gru_cell/gates/kernel/Initializer/random_uniform/RandomUniform"
  op: "RandomUniform"
  input: "bidirectional_rnn/fw/multi_rnn_cell/cell_2/gru_cell/gates/kernel/Initializer/random_uniform/shape"
  attr {
    key: "T"
    value {
      type: DT_INT32
    }
  }
  attr {
    key: "_class"
    value {
      list {
        s: "loc:@bidirectional_rnn/fw/multi_rnn_cell/cell_2/gru_cell/gates/kernel"
      }
    }
  }
  attr {
    key: "_output_shapes"
    value {
      list {
        shape {
          dim {
            size: 256
          }
          dim {
            size: 256
          }
        }
      }
    }
  }
  attr {
    key: "dtype"
    value {
      type: DT_FLOAT
    }
  }
  attr {
    key: "seed"
    value {
      i: 0
    }
  }
  attr {
    key: "seed2"
    value {
      i: 0
    }
  }
}
node {
  name: "bidirectional_rnn/fw/multi_rnn_cell/cell_2/gru_cell/gates/kernel/Initializer/random_uniform/sub"
  op: "Sub"
  input: "bidirectional_rnn/fw/multi_rnn_cell/cell_2/gru_cell/gates/kernel/Initializer/random_uniform/max"
  input: "bidirectional_rnn/fw/multi_rnn_cell/cell_2/gru_cell/gates/kernel/Initializer/random_uniform/min"
  attr {
    key: "T"
    value {
      type: DT_FLOAT
    }
  }
  attr {
    key: "_class"
    value {
      list {
        s: "loc:@bidirectional_rnn/fw/multi_rnn_cell/cell_2/gru_cell/gates/kernel"
      }
    }
  }
  attr {
    key: "_output_shapes"
    value {
      list {
        shape {
        }
      }
    }
  }
}
node {
  name: "bidirectional_rnn/fw/multi_rnn_cell/cell_2/gru_cell/gates/kernel/Initializer/random_uniform/mul"
  op: "Mul"
  input: "bidirectional_rnn/fw/multi_rnn_cell/cell_2/gru_cell/gates/kernel/Initializer/random_uniform/RandomUniform"
  input: "bidirectional_rnn/fw/multi_rnn_cell/cell_2/gru_cell/gates/kernel/Initializer/random_uniform/sub"
  attr {
    key: "T"
    value {
      type: DT_FLOAT
    }
  }
  attr {
    key: "_class"
    value {
      list {
        s: "loc:@bidirectional_rnn/fw/multi_rnn_cell/cell_2/gru_cell/gates/kernel"
      }
    }
  }
  attr {
    key: "_output_shapes"
    value {
      list {
        shape {
          dim {
            size: 256
          }
          dim {
            size: 256
          }
        }
      }
    }
  }
}
node {
  name: "bidirectional_rnn/fw/multi_rnn_cell/cell_2/gru_cell/gates/kernel/Initializer/random_uniform"
  op: "AddV2"
  input: "bidirectional_rnn/fw/multi_rnn_cell/cell_2/gru_cell/gates/kernel/Initializer/random_uniform/mul"
  input: "bidirectional_rnn/fw/multi_rnn_cell/cell_2/gru_cell/gates/kernel/Initializer/random_uniform/min"
  attr {
    key: "T"
    value {
      type: DT_FLOAT
    }
  }
  attr {
    key: "_class"
    value {
      list {
        s: "loc:@bidirectional_rnn/fw/multi_rnn_cell/cell_2/gru_cell/gates/kernel"
      }
    }
  }
  attr {
    key: "_output_shapes"
    value {
      list {
        shape {
          dim {
            size: 256
          }
          dim {
            size: 256
          }
        }
      }
    }
  }
}
node {
  name: "bidirectional_rnn/fw/multi_rnn_cell/cell_2/gru_cell/gates/kernel"
  op: "VarHandleOp"
  attr {
    key: "_class"
    value {
      list {
        s: "loc:@bidirectional_rnn/fw/multi_rnn_cell/cell_2/gru_cell/gates/kernel"
      }
    }
  }
  attr {
    key: "_output_shapes"
    value {
      list {
        shape {
        }
      }
    }
  }
  attr {
    key: "allowed_devices"
    value {
      list {
      }
    }
  }
  attr {
    key: "container"
    value {
      s: ""
    }
  }
  attr {
    key: "dtype"
    value {
      type: DT_FLOAT
    }
  }
  attr {
    key: "shape"
    value {
      shape {
        dim {
          size: 256
        }
        dim {
          size: 256
        }
      }
    }
  }
  attr {
    key: "shared_name"
    value {
      s: "bidirectional_rnn/fw/multi_rnn_cell/cell_2/gru_cell/gates/kernel"
    }
  }
}
node {
  name: "bidirectional_rnn/fw/multi_rnn_cell/cell_2/gru_cell/gates/kernel/IsInitialized/VarIsInitializedOp"
  op: "VarIsInitializedOp"
  input: "bidirectional_rnn/fw/multi_rnn_cell/cell_2/gru_cell/gates/kernel"
  attr {
    key: "_output_shapes"
    value {
      list {
        shape {
        }
      }
    }
  }
}
node {
  name: "bidirectional_rnn/fw/multi_rnn_cell/cell_2/gru_cell/gates/kernel/Assign"
  op: "AssignVariableOp"
  input: "bidirectional_rnn/fw/multi_rnn_cell/cell_2/gru_cell/gates/kernel"
  input: "bidirectional_rnn/fw/multi_rnn_cell/cell_2/gru_cell/gates/kernel/Initializer/random_uniform"
  attr {
    key: "dtype"
    value {
      type: DT_FLOAT
    }
  }
}
node {
  name: "bidirectional_rnn/fw/multi_rnn_cell/cell_2/gru_cell/gates/kernel/Read/ReadVariableOp"
  op: "ReadVariableOp"
  input: "bidirectional_rnn/fw/multi_rnn_cell/cell_2/gru_cell/gates/kernel"
  attr {
    key: "_output_shapes"
    value {
      list {
        shape {
          dim {
            size: 256
          }
          dim {
            size: 256
          }
        }
      }
    }
  }
  attr {
    key: "dtype"
    value {
      type: DT_FLOAT
    }
  }
}
node {
  name: "bidirectional_rnn/fw/multi_rnn_cell/cell_2/gru_cell/gates/kernel/Read/Identity"
  op: "Identity"
  input: "bidirectional_rnn/fw/multi_rnn_cell/cell_2/gru_cell/gates/kernel/Read/ReadVariableOp"
  attr {
    key: "T"
    value {
      type: DT_FLOAT
    }
  }
  attr {
    key: "_output_shapes"
    value {
      list {
        shape {
          dim {
            size: 256
          }
          dim {
            size: 256
          }
        }
      }
    }
  }
}
node {
  name: "bidirectional_rnn/fw/multi_rnn_cell/cell_2/gru_cell/gates/bias/Initializer/Const"
  op: "Const"
  attr {
    key: "_class"
    value {
      list {
        s: "loc:@bidirectional_rnn/fw/multi_rnn_cell/cell_2/gru_cell/gates/bias"
      }
    }
  }
  attr {
    key: "_output_shapes"
    value {
      list {
        shape {
          dim {
            size: 256
          }
        }
      }
    }
  }
  attr {
    key: "dtype"
    value {
      type: DT_FLOAT
    }
  }
  attr {
    key: "value"
    value {
      tensor {
        dtype: DT_FLOAT
        tensor_shape {
          dim {
            size: 256
          }
        }
        float_val: 1.0
      }
    }
  }
}
node {
  name: "bidirectional_rnn/fw/multi_rnn_cell/cell_2/gru_cell/gates/bias"
  op: "VarHandleOp"
  attr {
    key: "_class"
    value {
      list {
        s: "loc:@bidirectional_rnn/fw/multi_rnn_cell/cell_2/gru_cell/gates/bias"
      }
    }
  }
  attr {
    key: "_output_shapes"
    value {
      list {
        shape {
        }
      }
    }
  }
  attr {
    key: "allowed_devices"
    value {
      list {
      }
    }
  }
  attr {
    key: "container"
    value {
      s: ""
    }
  }
  attr {
    key: "dtype"
    value {
      type: DT_FLOAT
    }
  }
  attr {
    key: "shape"
    value {
      shape {
        dim {
          size: 256
        }
      }
    }
  }
  attr {
    key: "shared_name"
    value {
      s: "bidirectional_rnn/fw/multi_rnn_cell/cell_2/gru_cell/gates/bias"
    }
  }
}
node {
  name: "bidirectional_rnn/fw/multi_rnn_cell/cell_2/gru_cell/gates/bias/IsInitialized/VarIsInitializedOp"
  op: "VarIsInitializedOp"
  input: "bidirectional_rnn/fw/multi_rnn_cell/cell_2/gru_cell/gates/bias"
  attr {
    key: "_output_shapes"
    value {
      list {
        shape {
        }
      }
    }
  }
}
node {
  name: "bidirectional_rnn/fw/multi_rnn_cell/cell_2/gru_cell/gates/bias/Assign"
  op: "AssignVariableOp"
  input: "bidirectional_rnn/fw/multi_rnn_cell/cell_2/gru_cell/gates/bias"
  input: "bidirectional_rnn/fw/multi_rnn_cell/cell_2/gru_cell/gates/bias/Initializer/Const"
  attr {
    key: "dtype"
    value {
      type: DT_FLOAT
    }
  }
}
node {
  name: "bidirectional_rnn/fw/multi_rnn_cell/cell_2/gru_cell/gates/bias/Read/ReadVariableOp"
  op: "ReadVariableOp"
  input: "bidirectional_rnn/fw/multi_rnn_cell/cell_2/gru_cell/gates/bias"
  attr {
    key: "_output_shapes"
    value {
      list {
        shape {
          dim {
            size: 256
          }
        }
      }
    }
  }
  attr {
    key: "dtype"
    value {
      type: DT_FLOAT
    }
  }
}
node {
  name: "bidirectional_rnn/fw/multi_rnn_cell/cell_2/gru_cell/gates/bias/Read/Identity"
  op: "Identity"
  input: "bidirectional_rnn/fw/multi_rnn_cell/cell_2/gru_cell/gates/bias/Read/ReadVariableOp"
  attr {
    key: "T"
    value {
      type: DT_FLOAT
    }
  }
  attr {
    key: "_output_shapes"
    value {
      list {
        shape {
          dim {
            size: 256
          }
        }
      }
    }
  }
}
node {
  name: "bidirectional_rnn/fw/multi_rnn_cell/cell_2/gru_cell/candidate/kernel/Initializer/random_uniform/shape"
  op: "Const"
  attr {
    key: "_class"
    value {
      list {
        s: "loc:@bidirectional_rnn/fw/multi_rnn_cell/cell_2/gru_cell/candidate/kernel"
      }
    }
  }
  attr {
    key: "_output_shapes"
    value {
      list {
        shape {
          dim {
            size: 2
          }
        }
      }
    }
  }
  attr {
    key: "dtype"
    value {
      type: DT_INT32
    }
  }
  attr {
    key: "value"
    value {
      tensor {
        dtype: DT_INT32
        tensor_shape {
          dim {
            size: 2
          }
        }
        tensor_content: "\000\001\000\000\200\000\000\000"
      }
    }
  }
}
node {
  name: "bidirectional_rnn/fw/multi_rnn_cell/cell_2/gru_cell/candidate/kernel/Initializer/random_uniform/min"
  op: "Const"
  attr {
    key: "_class"
    value {
      list {
        s: "loc:@bidirectional_rnn/fw/multi_rnn_cell/cell_2/gru_cell/candidate/kernel"
      }
    }
  }
  attr {
    key: "_output_shapes"
    value {
      list {
        shape {
        }
      }
    }
  }
  attr {
    key: "dtype"
    value {
      type: DT_FLOAT
    }
  }
  attr {
    key: "value"
    value {
      tensor {
        dtype: DT_FLOAT
        tensor_shape {
        }
        float_val: -0.125
      }
    }
  }
}
node {
  name: "bidirectional_rnn/fw/multi_rnn_cell/cell_2/gru_cell/candidate/kernel/Initializer/random_uniform/max"
  op: "Const"
  attr {
    key: "_class"
    value {
      list {
        s: "loc:@bidirectional_rnn/fw/multi_rnn_cell/cell_2/gru_cell/candidate/kernel"
      }
    }
  }
  attr {
    key: "_output_shapes"
    value {
      list {
        shape {
        }
      }
    }
  }
  attr {
    key: "dtype"
    value {
      type: DT_FLOAT
    }
  }
  attr {
    key: "value"
    value {
      tensor {
        dtype: DT_FLOAT
        tensor_shape {
        }
        float_val: 0.125
      }
    }
  }
}
node {
  name: "bidirectional_rnn/fw/multi_rnn_cell/cell_2/gru_cell/candidate/kernel/Initializer/random_uniform/RandomUniform"
  op: "RandomUniform"
  input: "bidirectional_rnn/fw/multi_rnn_cell/cell_2/gru_cell/candidate/kernel/Initializer/random_uniform/shape"
  attr {
    key: "T"
    value {
      type: DT_INT32
    }
  }
  attr {
    key: "_class"
    value {
      list {
        s: "loc:@bidirectional_rnn/fw/multi_rnn_cell/cell_2/gru_cell/candidate/kernel"
      }
    }
  }
  attr {
    key: "_output_shapes"
    value {
      list {
        shape {
          dim {
            size: 256
          }
          dim {
            size: 128
          }
        }
      }
    }
  }
  attr {
    key: "dtype"
    value {
      type: DT_FLOAT
    }
  }
  attr {
    key: "seed"
    value {
      i: 0
    }
  }
  attr {
    key: "seed2"
    value {
      i: 0
    }
  }
}
node {
  name: "bidirectional_rnn/fw/multi_rnn_cell/cell_2/gru_cell/candidate/kernel/Initializer/random_uniform/sub"
  op: "Sub"
  input: "bidirectional_rnn/fw/multi_rnn_cell/cell_2/gru_cell/candidate/kernel/Initializer/random_uniform/max"
  input: "bidirectional_rnn/fw/multi_rnn_cell/cell_2/gru_cell/candidate/kernel/Initializer/random_uniform/min"
  attr {
    key: "T"
    value {
      type: DT_FLOAT
    }
  }
  attr {
    key: "_class"
    value {
      list {
        s: "loc:@bidirectional_rnn/fw/multi_rnn_cell/cell_2/gru_cell/candidate/kernel"
      }
    }
  }
  attr {
    key: "_output_shapes"
    value {
      list {
        shape {
        }
      }
    }
  }
}
node {
  name: "bidirectional_rnn/fw/multi_rnn_cell/cell_2/gru_cell/candidate/kernel/Initializer/random_uniform/mul"
  op: "Mul"
  input: "bidirectional_rnn/fw/multi_rnn_cell/cell_2/gru_cell/candidate/kernel/Initializer/random_uniform/RandomUniform"
  input: "bidirectional_rnn/fw/multi_rnn_cell/cell_2/gru_cell/candidate/kernel/Initializer/random_uniform/sub"
  attr {
    key: "T"
    value {
      type: DT_FLOAT
    }
  }
  attr {
    key: "_class"
    value {
      list {
        s: "loc:@bidirectional_rnn/fw/multi_rnn_cell/cell_2/gru_cell/candidate/kernel"
      }
    }
  }
  attr {
    key: "_output_shapes"
    value {
      list {
        shape {
          dim {
            size: 256
          }
          dim {
            size: 128
          }
        }
      }
    }
  }
}
node {
  name: "bidirectional_rnn/fw/multi_rnn_cell/cell_2/gru_cell/candidate/kernel/Initializer/random_uniform"
  op: "AddV2"
  input: "bidirectional_rnn/fw/multi_rnn_cell/cell_2/gru_cell/candidate/kernel/Initializer/random_uniform/mul"
  input: "bidirectional_rnn/fw/multi_rnn_cell/cell_2/gru_cell/candidate/kernel/Initializer/random_uniform/min"
  attr {
    key: "T"
    value {
      type: DT_FLOAT
    }
  }
  attr {
    key: "_class"
    value {
      list {
        s: "loc:@bidirectional_rnn/fw/multi_rnn_cell/cell_2/gru_cell/candidate/kernel"
      }
    }
  }
  attr {
    key: "_output_shapes"
    value {
      list {
        shape {
          dim {
            size: 256
          }
          dim {
            size: 128
          }
        }
      }
    }
  }
}
node {
  name: "bidirectional_rnn/fw/multi_rnn_cell/cell_2/gru_cell/candidate/kernel"
  op: "VarHandleOp"
  attr {
    key: "_class"
    value {
      list {
        s: "loc:@bidirectional_rnn/fw/multi_rnn_cell/cell_2/gru_cell/candidate/kernel"
      }
    }
  }
  attr {
    key: "_output_shapes"
    value {
      list {
        shape {
        }
      }
    }
  }
  attr {
    key: "allowed_devices"
    value {
      list {
      }
    }
  }
  attr {
    key: "container"
    value {
      s: ""
    }
  }
  attr {
    key: "dtype"
    value {
      type: DT_FLOAT
    }
  }
  attr {
    key: "shape"
    value {
      shape {
        dim {
          size: 256
        }
        dim {
          size: 128
        }
      }
    }
  }
  attr {
    key: "shared_name"
    value {
      s: "bidirectional_rnn/fw/multi_rnn_cell/cell_2/gru_cell/candidate/kernel"
    }
  }
}
node {
  name: "bidirectional_rnn/fw/multi_rnn_cell/cell_2/gru_cell/candidate/kernel/IsInitialized/VarIsInitializedOp"
  op: "VarIsInitializedOp"
  input: "bidirectional_rnn/fw/multi_rnn_cell/cell_2/gru_cell/candidate/kernel"
  attr {
    key: "_output_shapes"
    value {
      list {
        shape {
        }
      }
    }
  }
}
node {
  name: "bidirectional_rnn/fw/multi_rnn_cell/cell_2/gru_cell/candidate/kernel/Assign"
  op: "AssignVariableOp"
  input: "bidirectional_rnn/fw/multi_rnn_cell/cell_2/gru_cell/candidate/kernel"
  input: "bidirectional_rnn/fw/multi_rnn_cell/cell_2/gru_cell/candidate/kernel/Initializer/random_uniform"
  attr {
    key: "dtype"
    value {
      type: DT_FLOAT
    }
  }
}
node {
  name: "bidirectional_rnn/fw/multi_rnn_cell/cell_2/gru_cell/candidate/kernel/Read/ReadVariableOp"
  op: "ReadVariableOp"
  input: "bidirectional_rnn/fw/multi_rnn_cell/cell_2/gru_cell/candidate/kernel"
  attr {
    key: "_output_shapes"
    value {
      list {
        shape {
          dim {
            size: 256
          }
          dim {
            size: 128
          }
        }
      }
    }
  }
  attr {
    key: "dtype"
    value {
      type: DT_FLOAT
    }
  }
}
node {
  name: "bidirectional_rnn/fw/multi_rnn_cell/cell_2/gru_cell/candidate/kernel/Read/Identity"
  op: "Identity"
  input: "bidirectional_rnn/fw/multi_rnn_cell/cell_2/gru_cell/candidate/kernel/Read/ReadVariableOp"
  attr {
    key: "T"
    value {
      type: DT_FLOAT
    }
  }
  attr {
    key: "_output_shapes"
    value {
      list {
        shape {
          dim {
            size: 256
          }
          dim {
            size: 128
          }
        }
      }
    }
  }
}
node {
  name: "bidirectional_rnn/fw/multi_rnn_cell/cell_2/gru_cell/candidate/bias/Initializer/zeros"
  op: "Const"
  attr {
    key: "_class"
    value {
      list {
        s: "loc:@bidirectional_rnn/fw/multi_rnn_cell/cell_2/gru_cell/candidate/bias"
      }
    }
  }
  attr {
    key: "_output_shapes"
    value {
      list {
        shape {
          dim {
            size: 128
          }
        }
      }
    }
  }
  attr {
    key: "dtype"
    value {
      type: DT_FLOAT
    }
  }
  attr {
    key: "value"
    value {
      tensor {
        dtype: DT_FLOAT
        tensor_shape {
          dim {
            size: 128
          }
        }
        float_val: 0.0
      }
    }
  }
}
node {
  name: "bidirectional_rnn/fw/multi_rnn_cell/cell_2/gru_cell/candidate/bias"
  op: "VarHandleOp"
  attr {
    key: "_class"
    value {
      list {
        s: "loc:@bidirectional_rnn/fw/multi_rnn_cell/cell_2/gru_cell/candidate/bias"
      }
    }
  }
  attr {
    key: "_output_shapes"
    value {
      list {
        shape {
        }
      }
    }
  }
  attr {
    key: "allowed_devices"
    value {
      list {
      }
    }
  }
  attr {
    key: "container"
    value {
      s: ""
    }
  }
  attr {
    key: "dtype"
    value {
      type: DT_FLOAT
    }
  }
  attr {
    key: "shape"
    value {
      shape {
        dim {
          size: 128
        }
      }
    }
  }
  attr {
    key: "shared_name"
    value {
      s: "bidirectional_rnn/fw/multi_rnn_cell/cell_2/gru_cell/candidate/bias"
    }
  }
}
node {
  name: "bidirectional_rnn/fw/multi_rnn_cell/cell_2/gru_cell/candidate/bias/IsInitialized/VarIsInitializedOp"
  op: "VarIsInitializedOp"
  input: "bidirectional_rnn/fw/multi_rnn_cell/cell_2/gru_cell/candidate/bias"
  attr {
    key: "_output_shapes"
    value {
      list {
        shape {
        }
      }
    }
  }
}
node {
  name: "bidirectional_rnn/fw/multi_rnn_cell/cell_2/gru_cell/candidate/bias/Assign"
  op: "AssignVariableOp"
  input: "bidirectional_rnn/fw/multi_rnn_cell/cell_2/gru_cell/candidate/bias"
  input: "bidirectional_rnn/fw/multi_rnn_cell/cell_2/gru_cell/candidate/bias/Initializer/zeros"
  attr {
    key: "dtype"
    value {
      type: DT_FLOAT
    }
  }
}
node {
  name: "bidirectional_rnn/fw/multi_rnn_cell/cell_2/gru_cell/candidate/bias/Read/ReadVariableOp"
  op: "ReadVariableOp"
  input: "bidirectional_rnn/fw/multi_rnn_cell/cell_2/gru_cell/candidate/bias"
  attr {
    key: "_output_shapes"
    value {
      list {
        shape {
          dim {
            size: 128
          }
        }
      }
    }
  }
  attr {
    key: "dtype"
    value {
      type: DT_FLOAT
    }
  }
}
node {
  name: "bidirectional_rnn/fw/multi_rnn_cell/cell_2/gru_cell/candidate/bias/Read/Identity"
  op: "Identity"
  input: "bidirectional_rnn/fw/multi_rnn_cell/cell_2/gru_cell/candidate/bias/Read/ReadVariableOp"
  attr {
    key: "T"
    value {
      type: DT_FLOAT
    }
  }
  attr {
    key: "_output_shapes"
    value {
      list {
        shape {
          dim {
            size: 128
          }
        }
      }
    }
  }
}
node {
  name: "bidirectional_rnn/fw/fw/while"
  op: "While"
  input: "bidirectional_rnn/fw/fw/while/loop_counter"
  input: "bidirectional_rnn/fw/fw/strided_slice_1"
  input: "bidirectional_rnn/fw/fw/time"
  input: "bidirectional_rnn/fw/fw/TensorArrayV2"
  input: "bidirectional_rnn/fw/fw/MultiRNNCellZeroState/DropoutWrapperZeroState/GRUCellZeroState/zeros"
  input: "bidirectional_rnn/fw/fw/MultiRNNCellZeroState/DropoutWrapperZeroState_1/GRUCellZeroState/zeros"
  input: "bidirectional_rnn/fw/fw/MultiRNNCellZeroState/DropoutWrapperZeroState_2/GRUCellZeroState/zeros"
  input: "bidirectional_rnn/fw/fw/Minimum"
  input: "bidirectional_rnn/fw/fw/TensorArrayUnstack/TensorListFromTensor"
  input: "bidirectional_rnn/fw/fw/CheckSeqLen"
  input: "bidirectional_rnn/fw/multi_rnn_cell/cell_0/gru_cell/gates/kernel/Read/Identity"
  input: "bidirectional_rnn/fw/multi_rnn_cell/cell_0/gru_cell/gates/bias/Read/Identity"
  input: "bidirectional_rnn/fw/multi_rnn_cell/cell_0/gru_cell/candidate/kernel/Read/Identity"
  input: "bidirectional_rnn/fw/multi_rnn_cell/cell_0/gru_cell/candidate/bias/Read/Identity"
  input: "bidirectional_rnn/fw/multi_rnn_cell/cell_1/gru_cell/gates/kernel/Read/Identity"
  input: "bidirectional_rnn/fw/multi_rnn_cell/cell_1/gru_cell/gates/bias/Read/Identity"
  input: "bidirectional_rnn/fw/multi_rnn_cell/cell_1/gru_cell/candidate/kernel/Read/Identity"
  input: "bidirectional_rnn/fw/multi_rnn_cell/cell_1/gru_cell/candidate/bias/Read/Identity"
  input: "bidirectional_rnn/fw/multi_rnn_cell/cell_2/gru_cell/gates/kernel/Read/Identity"
  input: "bidirectional_rnn/fw/multi_rnn_cell/cell_2/gru_cell/gates/bias/Read/Identity"
  input: "bidirectional_rnn/fw/multi_rnn_cell/cell_2/gru_cell/candidate/kernel/Read/Identity"
  input: "bidirectional_rnn/fw/multi_rnn_cell/cell_2/gru_cell/candidate/bias/Read/Identity"
  input: "bidirectional_rnn/fw/fw/zeros"
  input: "gradients/bidirectional_rnn/fw/fw/while_grad/Select_0/accumulator"
  input: "gradients/bidirectional_rnn/fw/fw/while_grad/Placeholder_0/accumulator"
  input: "gradients/bidirectional_rnn/fw/fw/while_grad/Placeholder_2_0/accumulator"
  input: "gradients/bidirectional_rnn/fw/fw/while_grad/GreaterEqual_0/accumulator"
  input: "gradients/bidirectional_rnn/fw/fw/while_grad/Placeholder_3_0/accumulator"
  input: "gradients/bidirectional_rnn/fw/fw/while_grad/Placeholder_4_0/accumulator"
  input: "gradients/bidirectional_rnn/fw/fw/while_grad/gradients/fw/multi_rnn_cell/cell_0/dropout/Mul_1_grad/Shape_0/accumulator"
  input: "gradients/bidirectional_rnn/fw/fw/while_grad/gradients/fw/multi_rnn_cell/cell_0/dropout/Mul_1_grad/Shape_1_0/accumulator"
  input: "gradients/bidirectional_rnn/fw/fw/while_grad/fw/multi_rnn_cell/cell_0/dropout/Cast_0/accumulator"
  input: "gradients/bidirectional_rnn/fw/fw/while_grad/fw/multi_rnn_cell/cell_0/dropout/Mul_0/accumulator"
  input: "gradients/bidirectional_rnn/fw/fw/while_grad/gradients/fw/multi_rnn_cell/cell_1/dropout/Mul_1_grad/Shape_0/accumulator"
  input: "gradients/bidirectional_rnn/fw/fw/while_grad/gradients/fw/multi_rnn_cell/cell_1/dropout/Mul_1_grad/Shape_1_0/accumulator"
  input: "gradients/bidirectional_rnn/fw/fw/while_grad/fw/multi_rnn_cell/cell_1/dropout/Cast_0/accumulator"
  input: "gradients/bidirectional_rnn/fw/fw/while_grad/fw/multi_rnn_cell/cell_1/dropout/Mul_0/accumulator"
  input: "gradients/bidirectional_rnn/fw/fw/while_grad/gradients/fw/multi_rnn_cell/cell_2/dropout/Mul_1_grad/Shape_0/accumulator"
  input: "gradients/bidirectional_rnn/fw/fw/while_grad/gradients/fw/multi_rnn_cell/cell_2/dropout/Mul_1_grad/Shape_1_0/accumulator"
  input: "gradients/bidirectional_rnn/fw/fw/while_grad/fw/multi_rnn_cell/cell_2/dropout/Cast_0/accumulator"
  input: "gradients/bidirectional_rnn/fw/fw/while_grad/fw/multi_rnn_cell/cell_2/dropout/Mul_0/accumulator"
  input: "gradients/bidirectional_rnn/fw/fw/while_grad/gradients/fw/multi_rnn_cell/cell_2/dropout_1/Mul_1_grad/Shape_0/accumulator"
  input: "gradients/bidirectional_rnn/fw/fw/while_grad/gradients/fw/multi_rnn_cell/cell_2/dropout_1/Mul_1_grad/Shape_1_0/accumulator"
  input: "gradients/bidirectional_rnn/fw/fw/while_grad/fw/multi_rnn_cell/cell_2/dropout_1/Cast_0/accumulator"
  input: "gradients/bidirectional_rnn/fw/fw/while_grad/fw/multi_rnn_cell/cell_2/dropout_1/Mul_0/accumulator"
  input: "gradients/bidirectional_rnn/fw/fw/while_grad/gradients/fw/multi_rnn_cell/cell_0/dropout/Mul_grad/Shape_0/accumulator"
  input: "gradients/bidirectional_rnn/fw/fw/while_grad/gradients/fw/multi_rnn_cell/cell_0/dropout/Mul_grad/Shape_1_0/accumulator"
  input: "gradients/bidirectional_rnn/fw/fw/while_grad/fw/multi_rnn_cell/cell_0/gru_cell/add_0/accumulator"
  input: "gradients/bidirectional_rnn/fw/fw/while_grad/gradients/fw/multi_rnn_cell/cell_1/dropout/Mul_grad/Shape_0/accumulator"
  input: "gradients/bidirectional_rnn/fw/fw/while_grad/gradients/fw/multi_rnn_cell/cell_1/dropout/Mul_grad/Shape_1_0/accumulator"
  input: "gradients/bidirectional_rnn/fw/fw/while_grad/fw/multi_rnn_cell/cell_1/gru_cell/add_0/accumulator"
  input: "gradients/bidirectional_rnn/fw/fw/while_grad/gradients/fw/multi_rnn_cell/cell_2/dropout/Mul_grad/Shape_0/accumulator"
  input: "gradients/bidirectional_rnn/fw/fw/while_grad/gradients/fw/multi_rnn_cell/cell_2/dropout/Mul_grad/Shape_1_0/accumulator"
  input: "gradients/bidirectional_rnn/fw/fw/while_grad/fw/multi_rnn_cell/cell_2/gru_cell/add_0/accumulator"
  input: "gradients/bidirectional_rnn/fw/fw/while_grad/gradients/fw/multi_rnn_cell/cell_2/dropout_1/Mul_grad/Shape_1_0/accumulator"
  input: "gradients/bidirectional_rnn/fw/fw/while_grad/gradients/fw/multi_rnn_cell/cell_2/gru_cell/add_grad/Shape_0/accumulator"
  input: "gradients/bidirectional_rnn/fw/fw/while_grad/gradients/fw/multi_rnn_cell/cell_2/gru_cell/add_grad/Shape_1_0/accumulator"
  input: "gradients/bidirectional_rnn/fw/fw/while_grad/gradients/fw/multi_rnn_cell/cell_2/gru_cell/mul_1_grad/Shape_0/accumulator"
  input: "gradients/bidirectional_rnn/fw/fw/while_grad/fw/multi_rnn_cell/cell_2/gru_cell/split_1/accumulator"
  input: "gradients/bidirectional_rnn/fw/fw/while_grad/gradients/fw/multi_rnn_cell/cell_2/gru_cell/mul_2_grad/Shape_0/accumulator"
  input: "gradients/bidirectional_rnn/fw/fw/while_grad/gradients/fw/multi_rnn_cell/cell_2/gru_cell/mul_2_grad/Shape_1_0/accumulator"
  input: "gradients/bidirectional_rnn/fw/fw/while_grad/fw/multi_rnn_cell/cell_2/gru_cell/Tanh_0/accumulator"
  input: "gradients/bidirectional_rnn/fw/fw/while_grad/fw/multi_rnn_cell/cell_2/gru_cell/sub_0/accumulator"
  input: "gradients/bidirectional_rnn/fw/fw/while_grad/gradients/fw/multi_rnn_cell/cell_2/gru_cell/sub_grad/Shape_0/accumulator"
  input: "gradients/bidirectional_rnn/fw/fw/while_grad/fw/multi_rnn_cell/cell_2/gru_cell/concat_1_0/accumulator"
  input: "gradients/bidirectional_rnn/fw/fw/while_grad/fw/multi_rnn_cell/cell_1/dropout_1/Mul_1_0/accumulator"
  input: "gradients/bidirectional_rnn/fw/fw/while_grad/fw/multi_rnn_cell/cell_2/gru_cell/mul_0/accumulator"
  input: "gradients/bidirectional_rnn/fw/fw/while_grad/gradients/fw/multi_rnn_cell/cell_2/gru_cell/mul_grad/Shape_0/accumulator"
  input: "gradients/bidirectional_rnn/fw/fw/while_grad/fw/multi_rnn_cell/cell_2/gru_cell/split_0/accumulator"
…
          }
          shape {
          }
          shape {
          }
          shape {
          }
          shape {
            dim {
              size: 136
            }
            dim {
              size: 256
            }
          }
          shape {
          }
          shape {
          }
          shape {
          }
        }
      }
    }
    arg_attr {
      value {
        attr {
          key: "_output_shapes"
          value {
            list {
              shape {
              }
            }
          }
        }
      }
    }
    arg_attr {
      key: 1
      value {
        attr {
          key: "_output_shapes"
          value {
            list {
              shape {
              }
            }
          }
        }
      }
    }
    arg_attr {
      key: 2
      value {
        attr {
          key: "_output_shapes"
          value {
            list {
              shape {
              }
            }
          }
        }
      }
    }
    arg_attr {
      key: 3
      value {
        attr {
          key: "_output_shapes"
          value {
            list {
              shape {
              }
            }
          }
        }
      }
    }
    arg_attr {
      key: 4
      value {
        attr {
          key: "_output_shapes"
          value {
            list {
              shape {
                dim {
                  size: -1
                }
                dim {
                  size: 128
                }
              }
            }
          }
        }
      }
    }
    arg_attr {
      key: 5
      value {
        attr {
          key: "_output_shapes"
          value {
            list {
              shape {
                dim {
                  size: -1
                }
                dim {
                  size: 128
                }
              }
            }
          }
        }
      }
    }
    arg_attr {
      key: 6
      value {
        attr {
          key: "_output_shapes"
          value {
            list {
              shape {
                dim {
                  size: -1
                }
                dim {
                  size: 128
                }
              }
            }
          }
        }
      }
    }
    arg_attr {
      key: 7
      value {
        attr {
          key: "_output_shapes"
          value {
            list {
              shape {
              }
            }
          }
        }
      }
    }
    arg_attr {
      key: 8
      value {
        attr {
          key: "_output_shapes"
          value {
            list {
              shape {
                dim {
                  size: 136
                }
                dim {
                  size: 256
                }
              }
            }
          }
        }
      }
    }
    arg_attr {
      key: 9
      value {
        attr {
          key: "_output_shapes"
          value {
            list {
              shape {
                dim {
                  size: 256
                }
              }
            }
          }
        }
      }
    }
    arg_attr {
      key: 10
      value {
        attr {
          key: "_output_shapes"
          value {
            list {
              shape {
                dim {
                  size: 136
                }
                dim {
                  size: 128
                }
              }
            }
          }
        }
      }
    }
    arg_attr {
      key: 11
      value {
        attr {
          key: "_output_shapes"
          value {
            list {
              shape {
                dim {
                  size: 128
                }
              }
            }
          }
        }
      }
    }
    arg_attr {
      key: 12
      value {
        attr {
          key: "_output_shapes"
          value {
            list {
              shape {
                dim {
                  size: 256
                }
                dim {
                  size: 256
                }
              }
            }
          }
        }
      }
    }
    arg_attr {
      key: 13
      value {
        attr {
          key: "_output_shapes"
          value {
            list {
              shape {
                dim {
                  size: 256
                }
              }
            }
          }
        }
      }
    }
    arg_attr {
      key: 14
      value {
        attr {
          key: "_output_shapes"
          value {
            list {
              shape {
                dim {
                  size: 256
                }
                dim {
                  size: 128
                }
              }
            }
          }
        }
      }
    }
    arg_attr {
      key: 15
      value {
        attr {
          key: "_output_shapes"
          value {
            list {
              shape {
                dim {
                  size: 128
                }
              }
            }
          }
        }
      }
    }
    arg_attr {
      key: 16
      value {
        attr {
          key: "_output_shapes"
          value {
            list {
              shape {
                dim {
                  size: 256
                }
                dim {
                  size: 256
                }
              }
            }
          }
        }
      }
    }
    arg_attr {
      key: 17
      value {
        attr {
          key: "_output_shapes"
          value {
            list {
              shape {
                dim {
                  size: 256
                }
              }
            }
          }
        }
      }
    }
    arg_attr {
      key: 18
      value {
        attr {
          key: "_output_shapes"
          value {
            list {
              shape {
                dim {
                  size: 256
                }
                dim {
                  size: 128
                }
              }
            }
          }
        }
      }
    }
    arg_attr {
      key: 19
      value {
        attr {
          key: "_output_shapes"
          value {
            list {
              shape {
                dim {
                  size: 128
                }
              }
            }
          }
        }
      }
    }
    arg_attr {
      key: 20
      value {
        attr {
          key: "_output_shapes"
          value {
            list {
              shape {
                dim {
                  size: -1
                }
                dim {
                  size: 128
                }
              }
            }
          }
        }
      }
    }
    arg_attr {
      key: 21
      value {
        attr {
          key: "_output_shapes"
          value {
            list {
              shape {
              }
            }
          }
        }
      }
    }
    arg_attr {
      key: 22
      value {
        attr {
          key: "_output_shapes"
          value {
            list {
              shape {
              }
            }
          }
        }
      }
    }
    arg_attr {
      key: 23
      value {
        attr {
          key: "_output_shapes"
          value {
            list {
              shape {
              }
            }
          }
        }
      }
    }
    arg_attr {
      key: 24
      value {
        attr {
          key: "_output_shapes"
          value {
            list {
              shape {
              }
            }
          }
        }
      }
    }
    arg_attr {
      key: 25
      value {
        attr {
          key: "_output_shapes"
          value {
            list {
              shape {
              }
            }
          }
        }
      }
    }
    arg_attr {
      key: 26
      value {
        attr {
          key: "_output_shapes"
          value {
            list {
              shape {
              }
            }
          }
        }
      }
    }
    arg_attr {
      key: 27
      value {
        attr {
          key: "_output_shapes"
          value {
            list {
              shape {
                dim {
                  size: -1
                }
                dim {
                  size: 128
                }
              }
            }
          }
        }
      }
    }
    arg_attr {
      key: 28
      value {
        attr {
          key: "_output_shapes"
          value {
            list {
              shape {
              }
            }
          }
        }
      }
    }
    arg_attr {
      key: 29
      value {
        attr {
          key: "_output_shapes"
          value {
            list {
              shape {
              }
            }
          }
        }
      }
    }
    arg_attr {
      key: 30
      value {
        attr {
          key: "_output_shapes"
          value {
            list {
              shape {
              }
            }
          }
        }
      }
    }
    arg_attr {
      key: 31
      value {
        attr {
          key: "_output_shapes"
          value {
            list {
              shape {
              }
            }
          }
        }
      }
    }
    arg_attr {
      key: 32
      value {
        attr {
          key: "_output_shapes"
          value {
            list {
              shape {
              }
            }
          }
        }
      }
    }
    arg_attr {
      key: 33
      value {
        attr {
          key: "_output_shapes"
          value {
            list {
              shape {
              }
            }
          }
        }
      }
    }
    arg_attr {
      key: 34
      value {
        attr {
          key: "_output_shapes"
          value {
            list {
              shape {
              }
            }
          }
        }
      }
    }
    arg_attr {
      key: 35
      value {
        attr {
          key: "_output_shapes"
          value {
            list {
              shape {
              }
            }
          }
        }
      }
    }
    arg_attr {
      key: 36
      value {
        attr {
          key: "_output_shapes"
          value {
            list {
              shape {
              }
            }
          }
        }
      }
    }
    arg_attr {
      key: 37
      value {
        attr {
          key: "_output_shapes"
          value {
            list {
              shape {
              }
            }
          }
        }
      }
    }
    arg_attr {
      key: 38
      value {
        attr {
          key: "_output_shapes"
          value {
            list {
              shape {
              }
            }
          }
        }
      }
    }
    arg_attr {
      key: 39
      value {
        attr {
          key: "_output_shapes"
          value {
            list {
              shape {
              }
            }
          }
        }
      }
    }
    arg_attr {
      key: 40
      value {
        attr {
          key: "_output_shapes"
          value {
            list {
              shape {
              }
            }
          }
        }
      }
    }
    arg_attr {
      key: 41
      value {
        attr {
          key: "_output_shapes"
          value {
            list {
              shape {
              }
            }
          }
        }
      }
    }
    arg_attr {
      key: 42
      value {
        attr {
          key: "_output_shapes"
          value {
            list {
              shape {
              }
            }
          }
        }
      }
    }
    arg_attr {
      key: 43
      value {
        attr {
          key: "_output_shapes"
          value {
            list {
              shape {
              }
            }
          }
        }
      }
    }
    arg_attr {
      key: 44
      value {
        attr {
          key: "_output_shapes"
          value {
            list {
              shape {
              }
            }
          }
        }
      }
    }
    arg_attr {
      key: 45
      value {
        attr {
          key: "_output_shapes"
          value {
            list {
              shape {
              }
            }
          }
        }
      }
    }
    arg_attr {
      key: 46
      value {
        attr {
          key: "_output_shapes"
          value {
            list {
              shape {
              }
            }
          }
        }
      }
    }
    arg_attr {
      key: 47
      value {
        attr {
          key: "_output_shapes"
          value {
            list {
              shape {
              }
            }
          }
        }
      }
    }
    arg_attr {
      key: 48
      value {
        attr {
          key: "_output_shapes"
          value {
            list {
              shape {
              }
            }
          }
        }
      }
    }
    arg_attr {
      key: 49
      value {
        attr {
          key: "_output_shapes"
          value {
            list {
              shape {
              }
            }
          }
        }
      }
    }
    arg_attr {
      key: 50
      value {
        attr {
          key: "_output_shapes"
          value {
            list {
              shape {
              }
            }
          }
        }
      }
    }
    arg_attr {
      key: 51
      value {
        attr {
          key: "_output_shapes"
          value {
            list {
              shape {
              }
            }
          }
        }
      }
    }
    arg_attr {
      key: 52
      value {
        attr {
          key: "_output_shapes"
          value {
            list {
              shape {
              }
            }
          }
        }
      }
    }
    arg_attr {
      key: 53
      value {
        attr {
          key: "_output_shapes"
          value {
            list {
              shape {
              }
            }
          }
        }
      }
    }
    arg_attr {
      key: 54
      value {
        attr {
          key: "_output_shapes"
          value {
            list {
              shape {
              }
            }
          }
        }
      }
    }
    arg_attr {
      key: 55
      value {
        attr {
          key: "_output_shapes"
          value {
            list {
              shape {
              }
            }
          }
        }
      }
    }
    arg_attr {
      key: 56
      value {
        attr {
          key: "_output_shapes"
          value {
            list {
              shape {
              }
            }
          }
        }
      }
    }
    arg_attr {
      key: 57
      value {
        attr {
          key: "_output_shapes"
          value {
            list {
              shape {
              }
            }
          }
        }
      }
    }
    arg_attr {
      key: 58
      value {
        attr {
          key: "_output_shapes"
          value {
            list {
              shape {
              }
            }
          }
        }
      }
    }
    arg_attr {
      key: 59
      value {
        attr {
          key: "_output_shapes"
          value {
            list {
              shape {
              }
            }
          }
        }
      }
    }
    arg_attr {
      key: 60
      value {
        attr {
          key: "_output_shapes"
          value {
            list {
              shape {
              }
            }
          }
        }
      }
    }
    arg_attr {
      key: 61
      value {
        attr {
          key: "_output_shapes"
          value {
            list {
              shape {
              }
            }
          }
        }
      }
    }
    arg_attr {
      key: 62
      value {
        attr {
          key: "_output_shapes"
          value {
            list {
              shape {
              }
            }
          }
        }
      }
    }
    arg_attr {
      key: 63
      value {
        attr {
          key: "_output_shapes"
          value {
            list {
              shape {
                dim {
                  size: 256
                }
                dim {
                  size: 128
                }
              }
            }
          }
        }
      }
    }
    arg_attr {
      key: 64
      value {
        attr {
          key: "_output_shapes"
          value {
            list {
              shape {
              }
            }
          }
        }
      }
    }
    arg_attr {
      key: 65
      value {
        attr {
          key: "_output_shapes"
          value {
            list {
              shape {
              }
            }
          }
        }
      }
    }
    arg_attr {
      key: 66
      value {
        attr {
          key: "_output_shapes"
          value {
            list {
              shape {
              }
            }
          }
        }
      }
    }
    arg_attr {
      key: 67
      value {
        attr {
          key: "_output_shapes"
          value {
            list {
              shape {
              }
            }
          }
        }
      }
    }
    arg_attr {
      key: 68
      value {
        attr {
          key: "_output_shapes"
          value {
            list {
              shape {
              }
            }
          }
        }
      }
    }
    arg_attr {
      key: 69
      value {
        attr {
          key: "_output_shapes"
          value {
            list {
              shape {
              }
            }
          }
        }
      }
    }
    arg_attr {
      key: 70
      value {
        attr {
          key: "_output_shapes"
          value {
            list {
              shape {
                dim {
                  size: 256
                }
                dim {
                  size: 256
                }
              }
            }
          }
        }
      }
    }
    arg_attr {
      key: 71
      value {
        attr {
          key: "_output_shapes"
          value {
            list {
              shape {
              }
            }
          }
        }
      }
    }
    arg_attr {
      key: 72
      value {
        attr {
          key: "_output_shapes"
          value {
            list {
              shape {
              }
            }
          }
        }
      }
    }
    arg_attr {
      key: 73
      value {
        attr {
          key: "_output_shapes"
          value {
            list {
              shape {
              }
            }
          }
        }
      }
    }
    arg_attr {
      key: 74
      value {
        attr {
          key: "_output_shapes"
          value {
            list {
              shape {
              }
            }
          }
        }
      }
    }
    arg_attr {
      key: 75
      value {
        attr {
          key: "_output_shapes"
          value {
            list {
              shape {
              }
            }
          }
        }
      }
    }
    arg_attr {
      key: 76
      value {
        attr {
          key: "_output_shapes"
          value {
            list {
              shape {
              }
            }
          }
        }
      }
    }
    arg_attr {
      key: 77
      value {
        attr {
          key: "_output_shapes"
          value {
            list {
              shape {
              }
            }
          }
        }
      }
    }
    arg_attr {
      key: 78
      value {
        attr {
          key: "_output_shapes"
          value {
            list {
              shape {
              }
            }
          }
        }
      }
    }
    arg_attr {
      key: 79
      value {
        attr {
          key: "_output_shapes"
          value {
            list {
              shape {
              }
            }
          }
        }
      }
    }
    arg_attr {
      key: 80
      value {
        attr {
          key: "_output_shapes"
          value {
            list {
              shape {
              }
            }
          }
        }
      }
    }
    arg_attr {
      key: 81
      value {
        attr {
          key: "_output_shapes"
          value {
            list {
              shape {
              }
            }
          }
        }
      }
    }
    arg_attr {
      key: 82
      value {
        attr {
          key: "_output_shapes"
          value {
            list {
              shape {
              }
            }
          }
        }
      }
    }
    arg_attr {
      key: 83
      value {
        attr {
          key: "_output_shapes"
          value {
            list {
              shape {
              }
            }
          }
        }
      }
    }
    arg_attr {
      key: 84
      value {
        attr {
          key: "_output_shapes"
          value {
            list {
              shape {
              }
            }
          }
        }
      }
    }
    arg_attr {
      key: 85
      value {
        attr {
          key: "_output_shapes"
          value {
            list {
              shape {
              }
            }
          }
        }
      }
    }
    arg_attr {
      key: 86
      value {
        attr {
          key: "_output_shapes"
          value {
            list {
              shape {
                dim {
                  size: 256
                }
                dim {
                  size: 128
                }
              }
            }
          }
        }
      }
    }
    arg_attr {
      key: 87
      value {
        attr {
          key: "_output_shapes"
          value {
            list {
              shape {
              }
            }
          }
        }
      }
    }
    arg_attr {
      key: 88
      value {
        attr {
          key: "_output_shapes"
          value {
            list {
              shape {
              }
            }
          }
        }
      }
    }
    arg_attr {
      key: 89
      value {
        attr {
          key: "_output_shapes"
          value {
            list {
              shape {
              }
            }
          }
        }
      }
    }
    arg_attr {
      key: 90
      value {
        attr {
          key: "_output_shapes"
          value {
            list {
              shape {
              }
            }
          }
        }
      }
    }
    arg_attr {
      key: 91
      value {
        attr {
          key: "_output_shapes"
          value {
            list {
              shape {
              }
            }
          }
        }
      }
    }
    arg_attr {
      key: 92
      value {
        attr {
          key: "_output_shapes"
          value {
            list {
              shape {
              }
            }
          }
        }
      }
    }
    arg_attr {
      key: 93
      value {
        attr {
          key: "_output_shapes"
          value {
            list {
              shape {
                dim {
                  size: 256
                }
                dim {
                  size: 256
                }
              }
            }
          }
        }
      }
    }
    arg_attr {
      key: 94
      value {
        attr {
          key: "_output_shapes"
          value {
            list {
              shape {
              }
            }
          }
        }
      }
    }
    arg_attr {
      key: 95
      value {
        attr {
          key: "_output_shapes"
          value {
            list {
              shape {
              }
            }
          }
        }
      }
    }
    arg_attr {
      key: 96
      value {
        attr {
          key: "_output_shapes"
          value {
            list {
              shape {
              }
            }
          }
        }
      }
    }
    arg_attr {
      key: 97
      value {
        attr {
          key: "_output_shapes"
          value {
            list {
              shape {
              }
            }
          }
        }
      }
    }
    arg_attr {
      key: 98
      value {
        attr {
          key: "_output_shapes"
          value {
            list {
              shape {
              }
            }
          }
        }
      }
    }
    arg_attr {
      key: 99
      value {
        attr {
          key: "_output_shapes"
          value {
            list {
              shape {
              }
            }
          }
        }
      }
    }
    arg_attr {
      key: 100
      value {
        attr {
          key: "_output_shapes"
          value {
            list {
              shape {
              }
            }
          }
        }
      }
    }
    arg_attr {
      key: 101
      value {
        attr {
          key: "_output_shapes"
          value {
            list {
              shape {
              }
            }
          }
        }
      }
    }
    arg_attr {
      key: 102
      value {
        attr {
          key: "_output_shapes"
          value {
            list {
              shape {
              }
            }
          }
        }
      }
    }
    arg_attr {
      key: 103
      value {
        attr {
          key: "_output_shapes"
          value {
            list {
              shape {
              }
            }
          }
        }
      }
    }
    arg_attr {
      key: 104
      value {
        attr {
          key: "_output_shapes"
          value {
            list {
              shape {
              }
            }
          }
        }
      }
    }
    arg_attr {
      key: 105
      value {
        attr {
          key: "_output_shapes"
          value {
            list {
              shape {
              }
            }
          }
        }
      }
    }
    arg_attr {
      key: 106
      value {
        attr {
          key: "_output_shapes"
          value {
            list {
              shape {
              }
            }
          }
        }
      }
    }
    arg_attr {
      key: 107
      value {
        attr {
          key: "_output_shapes"
          value {
            list {
              shape {
              }
            }
          }
        }
      }
    }
    arg_attr {
      key: 108
      value {
        attr {
          key: "_output_shapes"
          value {
            list {
              shape {
              }
            }
          }
        }
      }
    }
    arg_attr {
      key: 109
      value {
        attr {
          key: "_output_shapes"
          value {
            list {
              shape {
                dim {
                  size: 136
                }
                dim {
                  size: 128
                }
              }
            }
          }
        }
      }
    }
    arg_attr {
      key: 110
      value {
        attr {
          key: "_output_shapes"
          value {
            list {
              shape {
              }
            }
          }
        }
      }
    }
    arg_attr {
      key: 111
      value {
        attr {
          key: "_output_shapes"
          value {
            list {
              shape {
              }
            }
          }
        }
      }
    }
    arg_attr {
      key: 112
      value {
        attr {
          key: "_output_shapes"
          value {
            list {
              shape {
              }
            }
          }
        }
      }
    }
    arg_attr {
      key: 113
      value {
        attr {
          key: "_output_shapes"
          value {
            list {
              shape {
              }
            }
          }
        }
      }
    }
    arg_attr {
      key: 114
      value {
        attr {
          key: "_output_shapes"
          value {
            list {
              shape {
              }
            }
          }
        }
      }
    }
    arg_attr {
      key: 115
      value {
        attr {
          key: "_output_shapes"
          value {
            list {
              shape {
              }
            }
          }
        }
      }
    }
    arg_attr {
      key: 116
      value {
        attr {
          key: "_output_shapes"
          value {
            list {
              shape {
                dim {
                  size: 136
                }
                dim {
                  size: 256
                }
              }
            }
          }
        }
      }
    }
    arg_attr {
      key: 117
      value {
        attr {
          key: "_output_shapes"
          value {
            list {
              shape {
              }
            }
          }
        }
      }
    }
    arg_attr {
      key: 118
      value {
        attr {
          key: "_output_shapes"
          value {
            list {
              shape {
              }
            }
          }
        }
      }
    }
    arg_attr {
      key: 119
      value {
        attr {
          key: "_output_shapes"
          value {
            list {
              shape {
              }
            }
          }
        }
      }
    }
  }
  function {
    signature {
      name: "__inference_Dataset_map_lambda_63"
      input_arg {
        name: "args_0"
        type: DT_STRING
      }
      output_arg {
        name: "identity"
        type: DT_STRING
      }
      output_arg {
        name: "identity_1"
        type: DT_STRING
      }
      output_arg {
        name: "identity_2"
        type: DT_INT64
      }
      output_arg {
        name: "identity_3"
        type: DT_STRING
      }
      output_arg {
        name: "identity_4"
        type: DT_STRING
      }
      output_arg {
        name: "identity_5"
        type: DT_STRING
      }
      output_arg {
        name: "identity_6"
        type: DT_STRING
      }
    }
    node_def {
      name: "ParseSingleExample/ParseExample/Const"
      op: "Const"
      attr {
        key: "_output_shapes"
        value {
          list {
            shape {
              dim {
              }
            }
          }
        }
      }
      attr {
        key: "dtype"
        value {
          type: DT_STRING
        }
      }
      attr {
        key: "value"
        value {
          tensor {
            dtype: DT_STRING
            tensor_shape {
              dim {
              }
            }
          }
        }
      }
      experimental_debug_info {
        original_node_names: "ParseSingleExample/ParseExample/Const"
      }
    }
    node_def {
      name: "ParseSingleExample/ParseExample/Const_1"
      op: "Const"
      attr {
        key: "_output_shapes"
        value {
          list {
            shape {
              dim {
              }
            }
          }
        }
      }
      attr {
        key: "dtype"
        value {
          type: DT_STRING
        }
      }
      attr {
        key: "value"
        value {
          tensor {
            dtype: DT_STRING
            tensor_shape {
              dim {
              }
            }
          }
        }
      }
      experimental_debug_info {
        original_node_names: "ParseSingleExample/ParseExample/Const_1"
      }
    }
    node_def {
      name: "ParseSingleExample/ParseExample/Const_2"
      op: "Const"
      attr {
        key: "_output_shapes"
        value {
          list {
            shape {
              dim {
              }
            }
          }
        }
      }
      attr {
        key: "dtype"
        value {
          type: DT_INT64
        }
      }
      attr {
        key: "value"
        value {
          tensor {
            dtype: DT_INT64
            tensor_shape {
              dim {
              }
            }
          }
        }
      }
      experimental_debug_info {
        original_node_names: "ParseSingleExample/ParseExample/Const_2"
      }
    }
    node_def {
      name: "ParseSingleExample/ParseExample/Const_3"
      op: "Const"
      attr {
        key: "_output_shapes"
        value {
          list {
            shape {
              dim {
              }
            }
          }
        }
      }
      attr {
        key: "dtype"
        value {
          type: DT_STRING
        }
      }
      attr {
        key: "value"
        value {
          tensor {
            dtype: DT_STRING
            tensor_shape {
              dim {
              }
            }
          }
        }
      }
      experimental_debug_info {
        original_node_names: "ParseSingleExample/ParseExample/Const_3"
      }
    }
    node_def {
      name: "ParseSingleExample/ParseExample/Const_4"
      op: "Const"
      attr {
        key: "_output_shapes"
        value {
          list {
            shape {
              dim {
              }
            }
          }
        }
      }
      attr {
        key: "dtype"
        value {
          type: DT_STRING
        }
      }
      attr {
        key: "value"
        value {
          tensor {
            dtype: DT_STRING
            tensor_shape {
              dim {
              }
            }
          }
        }
      }
      experimental_debug_info {
        original_node_names: "ParseSingleExample/ParseExample/Const_4"
      }
    }
    node_def {
      name: "ParseSingleExample/ParseExample/Const_5"
      op: "Const"
      attr {
        key: "_output_shapes"
        value {
          list {
            shape {
              dim {
              }
            }
          }
        }
      }
      attr {
        key: "dtype"
        value {
          type: DT_STRING
        }
      }
      attr {
        key: "value"
        value {
          tensor {
            dtype: DT_STRING
            tensor_shape {
              dim {
              }
            }
          }
        }
      }
      experimental_debug_info {
        original_node_names: "ParseSingleExample/ParseExample/Const_5"
      }
    }
    node_def {
      name: "ParseSingleExample/ParseExample/Const_6"
      op: "Const"
      attr {
        key: "_output_shapes"
        value {
          list {
            shape {
              dim {
              }
            }
          }
        }
      }
      attr {
        key: "dtype"
        value {
          type: DT_STRING
        }
      }
      attr {
        key: "value"
        value {
          tensor {
            dtype: DT_STRING
            tensor_shape {
              dim {
              }
            }
          }
        }
      }
      experimental_debug_info {
        original_node_names: "ParseSingleExample/ParseExample/Const_6"
      }
    }
    node_def {
      name: "ParseSingleExample/ParseExample/ParseExampleV2/names"
      op: "Const"
      attr {
        key: "_output_shapes"
        value {
          list {
            shape {
              dim {
              }
            }
          }
        }
      }
      attr {
        key: "dtype"
        value {
          type: DT_STRING
        }
      }
      attr {
        key: "value"
        value {
          tensor {
            dtype: DT_STRING
            tensor_shape {
              dim {
              }
            }
          }
        }
      }
      experimental_debug_info {
        original_node_names: "ParseSingleExample/ParseExample/ParseExampleV2/names"
      }
    }
    node_def {
      name: "ParseSingleExample/ParseExample/ParseExampleV2/sparse_keys"
      op: "Const"
      attr {
        key: "_output_shapes"
        value {
          list {
            shape {
              dim {
              }
            }
          }
        }
      }
      attr {
        key: "dtype"
        value {
          type: DT_STRING
        }
      }
      attr {
        key: "value"
        value {
          tensor {
            dtype: DT_STRING
            tensor_shape {
              dim {
              }
            }
          }
        }
      }
      experimental_debug_info {
        original_node_names: "ParseSingleExample/ParseExample/ParseExampleV2/sparse_keys"
      }
    }
    node_def {
      name: "ParseSingleExample/ParseExample/ParseExampleV2/dense_keys"
      op: "Const"
      attr {
        key: "_output_shapes"
        value {
          list {
            shape {
              dim {
                size: 7
              }
            }
          }
        }
      }
      attr {
        key: "dtype"
        value {
          type: DT_STRING
        }
      }
      attr {
        key: "value"
        value {
          tensor {
            dtype: DT_STRING
            tensor_shape {
              dim {
                size: 7
              }
            }
            string_val: "city"
            string_val: "houseletter"
            string_val: "housenumber"
            string_val: "housenumberext"
            string_val: "postalcode"
            string_val: "streetname"
            string_val: "streetname_short"
          }
        }
      }
      experimental_debug_info {
        original_node_names: "ParseSingleExample/ParseExample/ParseExampleV2/dense_keys"
      }
    }
    node_def {
      name: "ParseSingleExample/ParseExample/ParseExampleV2/ragged_keys"
      op: "Const"
      attr {
        key: "_output_shapes"
        value {
          list {
            shape {
              dim {
              }
            }
          }
        }
      }
      attr {
        key: "dtype"
        value {
          type: DT_STRING
        }
      }
      attr {
        key: "value"
        value {
          tensor {
            dtype: DT_STRING
            tensor_shape {
              dim {
              }
            }
          }
        }
      }
      experimental_debug_info {
        original_node_names: "ParseSingleExample/ParseExample/ParseExampleV2/ragged_keys"
      }
    }
    node_def {
      name: "ParseSingleExample/ParseExample/ParseExampleV2"
      op: "ParseExampleV2"
      input: "args_0"
      input: "ParseSingleExample/ParseExample/ParseExampleV2/names:output:0"
      input: "ParseSingleExample/ParseExample/ParseExampleV2/sparse_keys:output:0"
      input: "ParseSingleExample/ParseExample/ParseExampleV2/dense_keys:output:0"
      input: "ParseSingleExample/ParseExample/ParseExampleV2/ragged_keys:output:0"
      input: "ParseSingleExample/ParseExample/Const:output:0"
      input: "ParseSingleExample/ParseExample/Const_1:output:0"
      input: "ParseSingleExample/ParseExample/Const_2:output:0"
      input: "ParseSingleExample/ParseExample/Const_3:output:0"
      input: "ParseSingleExample/ParseExample/Const_4:output:0"
      input: "ParseSingleExample/ParseExample/Const_5:output:0"
      input: "ParseSingleExample/ParseExample/Const_6:output:0"
      attr {
        key: "Tdense"
        value {
          list {
            type: DT_STRING
            type: DT_STRING
            type: DT_INT64
            type: DT_STRING
            type: DT_STRING
            type: DT_STRING
            type: DT_STRING
          }
        }
      }
      attr {
        key: "_output_shapes"
        value {
          list {
            shape {
            }
            shape {
            }
            shape {
            }
            shape {
            }
            shape {
            }
            shape {
            }
            shape {
            }
          }
        }
      }
      attr {
        key: "dense_shapes"
        value {
          list {
            shape {
            }
            shape {
            }
            shape {
            }
            shape {
            }
            shape {
            }
            shape {
            }
            shape {
            }
          }
        }
      }
      attr {
        key: "num_sparse"
        value {
          i: 0
        }
      }
      attr {
        key: "ragged_split_types"
        value {
          list {
          }
        }
      }
      attr {
        key: "ragged_value_types"
        value {
          list {
          }
        }
      }
      attr {
        key: "sparse_types"
        value {
          list {
          }
        }
      }
      experimental_debug_info {
        original_node_names: "ParseSingleExample/ParseExample/ParseExampleV2"
      }
    }
    node_def {
      name: "Identity"
      op: "Identity"
      input: "ParseSingleExample/ParseExample/ParseExampleV2:dense_values:0"
      attr {
        key: "T"
        value {
          type: DT_STRING
        }
      }
      attr {
        key: "_output_shapes"
        value {
          list {
            shape {
            }
          }
        }
      }
      experimental_debug_info {
        original_node_names: "Identity"
      }
    }
    node_def {
      name: "Identity_1"
      op: "Identity"
      input: "ParseSingleExample/ParseExample/ParseExampleV2:dense_values:1"
      attr {
        key: "T"
        value {
          type: DT_STRING
        }
      }
      attr {
        key: "_output_shapes"
        value {
          list {
            shape {
            }
          }
        }
      }
      experimental_debug_info {
        original_node_names: "Identity_1"
      }
    }
    node_def {
      name: "Identity_2"
      op: "Identity"
      input: "ParseSingleExample/ParseExample/ParseExampleV2:dense_values:2"
      attr {
        key: "T"
        value {
          type: DT_INT64
        }
      }
      attr {
        key: "_output_shapes"
        value {
          list {
            shape {
            }
          }
        }
      }
      experimental_debug_info {
        original_node_names: "Identity_2"
      }
    }
    node_def {
      name: "Identity_3"
      op: "Identity"
      input: "ParseSingleExample/ParseExample/ParseExampleV2:dense_values:3"
      attr {
        key: "T"
        value {
          type: DT_STRING
        }
      }
      attr {
        key: "_output_shapes"
        value {
          list {
            shape {
            }
          }
        }
      }
      experimental_debug_info {
        original_node_names: "Identity_3"
      }
    }
    node_def {
      name: "Identity_4"
      op: "Identity"
      input: "ParseSingleExample/ParseExample/ParseExampleV2:dense_values:4"
      attr {
        key: "T"
        value {
          type: DT_STRING
        }
      }
      attr {
        key: "_output_shapes"
        value {
          list {
            shape {
            }
          }
        }
      }
      experimental_debug_info {
        original_node_names: "Identity_4"
      }
    }
    node_def {
      name: "Identity_5"
      op: "Identity"
      input: "ParseSingleExample/ParseExample/ParseExampleV2:dense_values:5"
      attr {
        key: "T"
        value {
          type: DT_STRING
        }
      }
      attr {
        key: "_output_shapes"
        value {
          list {
            shape {
            }
          }
        }
      }
      experimental_debug_info {
        original_node_names: "Identity_5"
      }
    }
    node_def {
      name: "Identity_6"
      op: "Identity"
      input: "ParseSingleExample/ParseExample/ParseExampleV2:dense_values:6"
      attr {
        key: "T"
        value {
          type: DT_STRING
        }
      }
      attr {
        key: "_output_shapes"
        value {
          list {
            shape {
            }
          }
        }
      }
      experimental_debug_info {
        original_node_names: "Identity_6"
      }
    }
    ret {
      key: "identity"
      value: "Identity:output:0"
    }
    ret {
      key: "identity_1"
      value: "Identity_1:output:0"
    }
    ret {
      key: "identity_2"
      value: "Identity_2:output:0"
    }
    ret {
      key: "identity_3"
      value: "Identity_3:output:0"
    }
    ret {
      key: "identity_4"
      value: "Identity_4:output:0"
    }
    ret {
      key: "identity_5"
      value: "Identity_5:output:0"
    }
    ret {
      key: "identity_6"
      value: "Identity_6:output:0"
    }
    attr {
      key: "_input_shapes"
      value {
        list {
          shape {
          }
        }
      }
    }
    attr {
      key: "_tf_data_function"
      value {
        b: true
      }
    }
    arg_attr {
      value {
        attr {
          key: "_output_shapes"
          value {
            list {
              shape {
              }
            }
          }
        }
        attr {
          key: "_user_specified_name"
          value {
            s: "args_0"
          }
        }
      }
    }
  }
  function {
    signature {
      name: "softmax_cross_entropy_loss_num_present_broadcast_weights_assert_broadcastable_is_valid_shape_false_1141"
      input_arg {
        name: "placeholder"
        type: DT_BOOL
      }
      input_arg {
        name: "has_valid_nonscalar_shape_is_same_rank_softmax_cross_entropy_loss_num_present_broadcast_weights_assert_broadcastable_values_rank"
        type: DT_INT32
      }
      input_arg {
        name: "has_valid_nonscalar_shape_is_same_rank_softmax_cross_entropy_loss_num_present_broadcast_weights_assert_broadcastable_weights_rank"
        type: DT_INT32
      }
      input_arg {
        name: "has_valid_nonscalar_shape_softmax_cross_entropy_loss_num_present_broadcast_weights_assert_broadcastable_values_shape"
        type: DT_INT32
      }
      input_arg {
        name: "has_valid_nonscalar_shape_softmax_cross_entropy_loss_num_present_broadcast_weights_assert_broadcastable_weights_shape"
        type: DT_INT32
      }
      output_arg {
        name: "has_valid_nonscalar_shape_identity"
        type: DT_BOOL
      }
    }
    node_def {
      name: "has_valid_nonscalar_shape/is_same_rank"
      op: "Equal"
      input: "has_valid_nonscalar_shape_is_same_rank_softmax_cross_entropy_loss_num_present_broadcast_weights_assert_broadcastable_values_rank"
      input: "has_valid_nonscalar_shape_is_same_rank_softmax_cross_entropy_loss_num_present_broadcast_weights_assert_broadcastable_weights_rank"
      attr {
        key: "T"
        value {
          type: DT_INT32
        }
      }
      attr {
        key: "_output_shapes"
        value {
          list {
            shape {
            }
          }
        }
      }
      attr {
        key: "incompatible_shape_error"
        value {
          b: true
        }
      }
      experimental_debug_info {
        original_node_names: "has_valid_nonscalar_shape/is_same_rank"
      }
    }
    node_def {
      name: "has_valid_nonscalar_shape"
      op: "StatelessIf"
      input: "has_valid_nonscalar_shape/is_same_rank:z:0"
      input: "has_valid_nonscalar_shape_softmax_cross_entropy_loss_num_present_broadcast_weights_assert_broadcastable_values_shape"
      input: "has_valid_nonscalar_shape_softmax_cross_entropy_loss_num_present_broadcast_weights_assert_broadcastable_weights_shape"
      input: "has_valid_nonscalar_shape/is_same_rank:z:0"
      attr {
        key: "Tcond"
        value {
          type: DT_BOOL
        }
      }
      attr {
        key: "Tin"
        value {
          list {
            type: DT_INT32
            type: DT_INT32
            type: DT_BOOL
          }
        }
      }
      attr {
        key: "Tout"
        value {
          list {
            type: DT_BOOL
          }
        }
      }
      attr {
        key: "_lower_using_switch_merge"
        value {
          b: true
        }
      }
      attr {
        key: "_output_shapes"
        value {
          list {
            shape {
            }
          }
        }
      }
      attr {
        key: "_read_only_resource_inputs"
        value {
          list {
          }
        }
      }
      attr {
        key: "else_branch"
        value {
          func {
            name: "has_valid_nonscalar_shape_false_1149"
          }
        }
      }
      attr {
        key: "output_shapes"
        value {
          list {
            shape {
            }
          }
        }
      }
      attr {
        key: "then_branch"
        value {
          func {
            name: "has_valid_nonscalar_shape_true_1148"
          }
        }
      }
      experimental_debug_info {
        original_node_names: "has_valid_nonscalar_shape"
      }
    }
    node_def {
      name: "has_valid_nonscalar_shape/Identity"
      op: "Identity"
      input: "has_valid_nonscalar_shape:output:0"
      attr {
        key: "T"
        value {
          type: DT_BOOL
        }
      }
      attr {
        key: "_output_shapes"
        value {
          list {
            shape {
            }
          }
        }
      }
      experimental_debug_info {
        original_node_names: "has_valid_nonscalar_shape/Identity"
      }
    }
    ret {
      key: "has_valid_nonscalar_shape_identity"
      value: "has_valid_nonscalar_shape/Identity:output:0"
    }
    attr {
      key: "_input_shapes"
      value {
        list {
          shape {
          }
          shape {
          }
          shape {
          }
          shape {
            dim {
              size: 2
            }
          }
          shape {
            dim {
              size: 2
            }
          }
        }
      }
    }
    arg_attr {
      value {
        attr {
          key: "_output_shapes"
          value {
            list {
              shape {
              }
            }
          }
        }
      }
    }
    arg_attr {
      key: 1
      value {
        attr {
          key: "_output_shapes"
          value {
            list {
              shape {
              }
            }
          }
        }
      }
    }
    arg_attr {
      key: 2
      value {
        attr {
          key: "_output_shapes"
          value {
            list {
              shape {
              }
            }
          }
        }
      }
    }
    arg_attr {
      key: 3
      value {
        attr {
          key: "_output_shapes"
          value {
            list {
              shape {
                dim {
                  size: 2
                }
              }
            }
          }
        }
      }
    }
    arg_attr {
      key: 4
      value {
        attr {
          key: "_output_shapes"
          value {
            list {
              shape {
                dim {
                  size: 2
                }
              }
            }
          }
        }
      }
    }
  }
}
versions {
  producer: 808
  min_consumer: 12
}
